best_model_params.pth (torch, 480922 bytes, 6 tensors)

lstm.weight_ih_l0 f4 [256, 401]
0	0xbf577932	-0.84169304
1	0x3f5f57c6	0.87243307
2	0xbe8979d0	-0.26850748
3	0x3fd86cba	1.6908181
4	0x40bbeb75	5.8724923
5	0x3f42ee99	0.7614532
6	0x3f7eed61	0.9958096
7	0xc0093f0e	-2.1444736
8	0x40233b69	2.550501
9	0x3f72c987	0.94838756
10	0x3ecae286	0.3962595
11	0xc00cd970	-2.2007713
12	0xbe1e321b	-0.15448801
13	0x401d2605	2.4554455
14	0x404cda3d	3.2008202
15	0x3c9d3b89	0.019193428
16	0x3e926b79	0.2859762
17	0x3f26a005	0.6508792
18	0xbfcf889d	-1.6213566
19	0x3dd9813f	0.10620355
20	0xc0348499	-2.820593
21	0xbfc40b84	-1.5316014
22	0x401793f2	2.3684049
23	0x3f2c1182	0.67214215
24	0x3df1d78a	0.11808689
25	0x3bb1bb25	0.0054239207
26	0x3f3e763f	0.7439918
27	0xc03710c4	-2.8603983
28	0x3d57302b	0.05253617
29	0x401bcb71	2.434292
30	0x406d50b4	3.7080507
31	0x40895284	4.2913227
32	0x40810424	4.0317554
33	0x403610e1	2.8447802
34	0x3feea7e3	1.8644985
35	0x3cbe31f5	0.02321718
36	0xc055b3b9	-3.3390944
37	0xc0142a98	-2.3150997
38	0x4017e920	2.3736038
39	0x40130b5f	2.297569
40	0xbed3d796	-0.41375417
41	0x3f82d41d	1.0220982
42	0xbfcd0484	-1.6017003
43	0x408d9ccd	4.4253907
44	0x409cbd46	4.8981047
45	0x4071a7b1	3.77586
46	0x40393c7f	2.8943174
47	0xbf0718ee	-0.52772415
48	0x3f6b28e3	0.91859263
49	0x4005bae7	2.0895326
50	0x409e7a16	4.952403
51	0x404251cd	3.0362427
52	0x402fe128	2.7481174
53	0x40ad1575	5.4088693
54	0x4073ef88	3.8114948
55	0x40d3ccbb	6.6187415
56	0x408f9c1f	4.4878078
57	0x40b61ca2	5.690995
58	0x40837ee3	4.109239
59	0x409d0392	4.906686
60	0x40a1c0ab	5.054769
61	0x40e0341c	7.006361
62	0x40d5d63a	6.6824007
63	0x40a54471	5.1646047
64	0x40bd83df	5.9223475
65	0x40814798	4.0399895
66	0x40ce629a	6.4495363
67	0x4086b1aa	4.2091875
68	0x40c4ca7b	6.149717
69	0x40c03fb4	6.0077763
70	0x40c6318b	6.1935477
71	0x405eb45f	3.479759
72	0x40f67e21	7.7028966
73	0x40eaf4d6	7.342387
74	0x40b7f7bd	5.7489915
75	0x40d33b48	6.6009865
76	0x40e8d4ad	7.2759614
77	0x40aef5a3	5.467485
78	0x40c87f2c	6.265524
79	0x4089ef5b	4.310468
80	0x3fba4fec	1.455564
81	0x403449c5	2.8170025
82	0x4083f702	4.1239023
83	0x40c7575c	6.229414
84	0x40c49b33	6.143945
85	0x408545ed	4.164786
86	0x40b08599	5.5163083
87	0x40d0a634	6.5202885
88	0x40c620b0	6.19149
89	0x40dcd5b8	6.9010887
90	0x40cd6fab	6.4198813
91	0x40bfb947	5.991367
92	0x403244a3	2.7854393
93	0x4017261b	2.3617008
94	0x408ac4c3	4.336519
95	0x40a5d2cd	5.1819825
96	0x40c95a18	6.292248
97	0x401e9ab2	2.4781919
98	0x402345fa	2.551146
99	0x405b5e84	3.4276438
100	0x405814e3	3.3762748
101	0x4017b910	2.3706703
102	0x4089f542	4.3111887
103	0x407ed288	3.9815998
104	0x40b4efbc	5.6542645
105	0x407603bd	3.8439782
106	0x404fed9e	3.248878
107	0x40144e9d	2.3172982
108	0x409ca4a7	4.895099
109	0x40ba7fcf	5.8281016
110	0x40a4cfd3	5.150369
111	0x40b67927	5.702289
112	0x407120cc	3.7676268
113	0x40406b50	3.0065498
114	0x404e85dd	3.2269204
115	0x409a2893	4.817453
116	0x408a790b	4.3272758
117	0x4076325d	3.846824
118	0x4073bb09	3.8082907
119	0x4060d6d6	3.5131125
120	0x40511274	3.2667513
121	0x3ec16032	0.37768704
122	0x404aa8ab	3.1665447
123	0x407d3ad7	3.9567163
124	0x40657c51	3.5857127
125	0x40391f8a	2.89255
126	0x40655818	3.5835018
127	0x4029a264	2.6505365
128	0x4080e55c	4.027998
129	0x4088bd67	4.2731204
130	0x401c2287	2.4396074
131	0x40208b13	2.5084884
132	0x408863bb	4.262174
133	0x404fe44d	3.2483094
134	0x40851d26	4.159808
135	0x406f7a0f	3.7418249
136	0x409822ea	4.754262
137	0x4044583e	3.0678859
138	0x40ad0ebf	5.40805
139	0x4096ea0e	4.716071
140	0x40a509e1	5.157456
141	0x4080ca59	4.0247006
142	0x40892f5a	4.28703
143	0x408b6b09	4.356816
144	0x40974fbe	4.728484
145	0x408aa328	4.3324165
146	0x4093c0b1	4.617272
147	0x405d39c3	3.4566505
148	0x409f165f	4.971481
149	0x4073b1e7	3.8077333
150	0x40950e19	4.657971
151	0x40388e5b	2.8836887
152	0x409ba8f8	4.864376
153	0x406fc6c5	3.746507
154	0x407d1a88	3.9547443
155	0x4066caf7	3.606138
156	0x40b04b8c	5.509222
157	0x404ca409	3.197512
158	0x409643cf	4.6957774
159	0x404743c0	3.1135101
160	0x408d164a	4.408971
161	0x40a295c1	5.0807805
162	0x4094c8a9	4.6494946
163	0x408382fb	4.109739
164	0x40a41e86	5.128726
165	0x40794ac1	3.8951876
166	0x4096ef4e	4.716712
167	0x4011b089	2.2763999
168	0x400e26ba	2.2211137
169	0x404992cf	3.1495855
170	0x40045795	2.0678456
171	0xbf2c0be1	-0.67205626
172	0x3fe00a2c	1.7503104
173	0x4065440e	3.5822787
174	0x4056f7d3	3.358876
175	0x40950a79	4.6575284
176	0x3f056c6e	0.52118576
177	0x3f13c749	0.5772596
178	0x4098816f	4.7658
179	0x4075baf8	3.8395367
180	0x40913f19	4.5389524
181	0x40186cff	2.3816526
182	0x409ea94b	4.9581656
183	0x408e58dc	4.448347
184	0x40972149	4.722813
185	0x404da338	3.213087
186	0x407a7eeb	3.9139965
187	0x40812a5e	4.036422
188	0x409bc20a	4.8674364
189	0x401f9768	2.493616
190	0x40635e9e	3.55265
191	0x3ffc0be6	1.9691131
192	0x40586a24	3.3814783
193	0x409657a4	4.6981983
194	0x40729ea2	3.7909322
195	0x3f5b1ad7	0.8558783
196	0x4094e4c0	4.6529236
197	0x40a5bf44	5.179598
198	0xbe0b7a67	-0.13620912
199	0xbf1ae790	-0.60509586
200	0x4096a75e	4.7079306
201	0x408e5ea4	4.449053
202	0x408658cb	4.198339
203	0x40247d6b	2.570155
204	0x4068562c	3.6302595
205	0x406fd005	3.7470715
206	0x40412e04	3.0184336
207	0x400b931d	2.180854
208	0x403bd3c7	2.9348009
209	0x409a23b7	4.8168597
210	0x404f3171	3.2373927
211	0x4077b9bd	3.8707116
212	0x4070a43e	3.7600245
213	0x3e302d7f	0.17204855
214	0x40283dbd	2.6287682
215	0x40176cd4	2.3660173
216	0x40631a64	3.5484858
217	0x40344950	2.8169746
218	0x3e456cae	0.1927974
219	0x401aaae5	2.4166806
220	0x4013e43b	2.310805
221	0xbc912ff6	-0.017723065
222	0x3fc5b417	1.5445584
223	0xbf904131	-1.1269895
224	0xbfd84ec5	-1.6899039
225	0x3b8190ce	0.0039540296
226	0x3b7b38fb	0.0038333524
227	0x3fb661df	1.4248618
228	0x405b4a6b	3.426417
229	0x400bee2b	2.1864116
230	0x3f728bf3	0.94744796
231	0xc022d671	-2.5443385
232	0xc033a5dc	-2.8069983
233	0x3e0396bd	0.12850471
234	0xc01c3a6e	-2.4410663
235	0xc05013ee	-3.2512164
236	0xc080d56b	-4.026052
237	0xc056fd44	-3.359208
238	0xc083e0c9	-4.1211896
239	0xc0a22596	-5.067088
240	0xc092bb34	-4.585352
241	0xc08a1eea	-4.3162737
242	0xc0906eb6	-4.5135145
243	0xc09f689d	-4.98152
244	0xc0768f0f	-3.8524816
245	0xc0a918a7	-5.2842593
246	0xc0a3bd9e	-5.1168966
247	0xc0c57b07	-6.171268
248	0xc086abaa	-4.208455
249	0xc08d4e59	-4.415814
250	0xc08d997c	-4.424986
251	0xc084b2e6	-4.146838
252	0xc02ccd6d	-2.7000382
253	0xbfea2752	-1.829325
254	0xbf646819	-0.8922134
255	0xc02a45fc	-2.6605215

lstm.weight_hh_l0 f4 [256, 64]
0	0x3e01d9cd	0.1268074
1	0x3ccf38c8	0.02529563
2	0xbe76c830	-0.24099803
3	0xbe0152fc	-0.12629312
4	0xbd092eca	-0.033491887
5	0x3d843356	0.06455104
6	0xbe11810c	-0.14209384
7	0x3e1539c5	0.14572819
8	0xbe8f781c	-0.28021324
9	0xbe449ced	-0.19200487
10	0xbe3443c2	-0.17603973
11	0x3d3bd7d2	0.04586012
12	0xbe983749	-0.2972968
13	0x3d61393a	0.054986216
14	0xbe171611	-0.14754511
15	0x3e594e34	0.21221238
16	0xbe55a04a	-0.20861927
17	0xbe87a5d9	-0.2649372
18	0xbeb6fe50	-0.357409
19	0x3e752c63	0.23942713
20	0xbd50e0da	-0.050995685
21	0xbeb2005c	-0.347659
22	0x3e8e2553	0.2776285
23	0xbe17fe78	-0.14843166
24	0xbe62e950	-0.22159314
25	0xbdf0c3ae	-0.11756073
26	0x3dd6e1e0	0.10492301
27	0xbe9213c1	-0.28530696
28	0xbe78e26f	-0.24305128
29	0xbd31a5a6	-0.043370865
30	0xbe9e59a0	-0.30927753
31	0x3e865a1d	0.26240626
32	0xbe474630	-0.19460368
33	0xbe067ba8	-0.13133109
34	0x3e4b66ba	0.19863406
35	0xbe244bba	-0.16044512
36	0xbd7a60b0	-0.061127365
37	0xbe1c1728	-0.15243208
38	0xbed2bcc3	-0.4115964
39	0xbe4e5335	-0.20148928
40	0xbe8c40f5	-0.27393308
41	0x3e2f2eeb	0.17107742
42	0xbe8f8094	-0.28027785
43	0xbe741b3f	-0.23838519
44	0xbe065801	-0.13119508
45	0x3e5c548d	0.21516629
46	0xbdcfbb37	-0.1014313
47	0x3e43bb54	0.19114429
48	0x3dee61b2	0.11639728
49	0x3c38d1a1	0.011280448
50	0xbe2b1346	-0.16706571
51	0x3c8b36dd	0.016993934
52	0xbe510154	-0.20410663
53	0x3e9f64e5	0.31131664
54	0xbe08811a	-0.13330498
55	0xbe82ba04	-0.25532544
56	0x3def6e75	0.1169099
57	0x3ea37a31	0.31929162
58	0x3bed5519	0.0072428104
59	0xbe383695	-0.17989571
60	0x3ec34524	0.38138688
61	0x3e026346	0.12733182
62	0x3c0750a7	0.008258975
63	0xbebb3dc3	-0.36570558
64	0x3d7a45a1	0.06110156
65	0x3d49d535	0.049275596
66	0xbdf79f7b	-0.12090965
67	0x3cbe4a4a	0.023228783
68	0xbdcba6a9	-0.09943897
69	0x3d49614d	0.04916506
70	0x3d58a167	0.0528883
71	0xbdd09150	-0.10183966
72	0xbe745073	-0.23858814
73	0x3d2415e3	0.040059935
74	0xbe084a26	-0.13309535
75	0x3e06388f	0.13107513
76	0xbe089219	-0.13336982
77	0xbd506e40	-0.050886393
78	0xbd54265a	-0.051794387
79	0x3e12423e	0.14283082
80	0x3c6df859	0.014524543
81	0xbe2b545d	-0.16731401
82	0xbe1c742c	-0.15278691
83	0x3e014cb4	0.12626916
84	0xbe1085fa	-0.14113608
85	0xbe4f1ca7	-0.20225774
86	0xbd5b5e73	-0.05355687
87	0xbd04bf33	-0.032408904
88	0xbd0278f8	-0.031853646
89	0x3cec2404	0.028825767
90	0x3d9bf7fd	0.076156594
91	0xbdde6678	-0.10859388
92	0x3d02e0c5	0.03195264
93	0xbdd44caf	-0.10366189
94	0xbdd30a2f	-0.10304677
95	0x3e3a6ab0	0.1820476
96	0xbe5d41fa	-0.216072
97	0x3d9d7428	0.07688171
98	0xbd501f99	-0.050811384
99	0xbe583f71	-0.21117951
100	0x39bbe06c	0.00035834627
101	0xbc50b53c	-0.012738522
102	0xbe56c82a	-0.20974794
103	0xbdb2dbe1	-0.08733345
104	0xbde50cb0	-0.111840606
105	0x3e002f46	0.12518033
106	0xbd9d3e5d	-0.076779105
107	0xbe237cbb	-0.1596555
108	0xbe56024e	-0.20899317
109	0xbc8b5472	-0.01700804
110	0xbde2ca2b	-0.11073717
111	0x3e2b8eb6	0.16753659
112	0xbd663936	-0.056206904
113	0xbd4b05ca	-0.049566068
114	0xbdd1f48a	-0.1025172
115	0xbc908965	-0.01764364
116	0xbdd982c5	-0.106206454
117	0x3e7701ac	0.24121732
118	0x3d2345e1	0.039861564
119	0xbe3cc039	-0.18432702
120	0x3e3c7369	0.184034
121	0x3e95d3a6	0.29263037
122	0xbe00c19c	-0.12573856
123	0xbd5b26e7	-0.053503897
124	0x3dace164	0.08441427
125	0x3d998874	0.074967295
126	0xbd3f5c2c	-0.04671876
127	0xbe71287d	-0.23550601
128	0x3dde223a	0.10846372
129	0x3d80c62b	0.062877975
130	0xbdd6dd5e	-0.10491441
131	0xbd88d1c5	-0.06680635
132	0xbdbaf077	-0.09127896
133	0x3dcb2a4c	0.09920177
134	0x3bbac2ae	0.005699477
135	0x3c9eb0ad	0.019371355
136	0xbe353b46	-0.17698392
137	0xbd2c9f6e	-0.04214423
138	0x3c0bc685	0.008531217
139	0xbd7c4f6d	-0.061599184
140	0xbe0a8825	-0.13528498
141	0x3dd75847	0.105148844
142	0xbd163d00	-0.036679268
143	0x3d923144	0.07138303
144	0xbd0b66b4	-0.034033492
145	0xbe63f922	-0.22263005
146	0xbe0832ab	-0.13300578
147	0x3e7f3c5a	0.24925366
148	0xbe59b58b	-0.2126066
149	0xbc94b6fc	-0.01815366
150	0x3de200d2	0.11035313
151	0x3c7c37fd	0.015394208
152	0xbe023b16	-0.12717852
153	0xbe00b351	-0.12568404
154	0x3bea37d3	0.007147768
155	0xbe1aef2d	-0.15130301
156	0xbdb3432d	-0.08753047
157	0xbc67ed20	-0.014155656
158	0xbe97d7cb	-0.29656824
159	0x3bc08985	0.0058757686
160	0x3c3518e8	0.011053301
161	0x3dcf182b	0.101120315
162	0x3df3db65	0.119070806
163	0xbde8f1a7	-0.113742165
164	0xbdfc3039	-0.12313885
165	0x3d0f8637	0.035040107
166	0xbe6371e5	-0.22211416
167	0xbdc7a72f	-0.097486846
168	0xbd968dd6	-0.07351272
169	0x3d02ca40	0.031931162
170	0xbd7892ea	-0.060686983
171	0x3d1795cf	0.037008103
172	0xbd86904f	-0.065704934
173	0x3d091fa0	0.033477426
174	0xbd0df525	-0.034657616
175	0xbc1ed976	-0.009695401
176	0xbdac17b3	-0.08402958
177	0x3c8d9ad6	0.017285746
178	0xbd6bd18b	-0.057572883
179	0xbd713a1d	-0.05889331
180	0xbe1f9fdf	-0.1558833
181	0x3e6a049b	0.2285332
182	0xbdc653d4	-0.09683958
183	0xbe5c7ebf	-0.21532725
184	0x3e12a925	0.14322336
185	0x3df54d08	0.11977583
186	0xbe01f7b8	-0.12692153
187	0xbd1f8d3a	-0.038953044
188	0x3e87df57	0.26537582
189	0x3c35b485	0.0110904025
190	0x3df5d736	0.12003939
191	0xbe9f4d5f	-0.31113717
192	0xbdb6173f	-0.088911526
193	0xbcd3d96f	-0.025860516
194	0xbd448eea	-0.047987856
195	0x3da3dcd5	0.08001105
196	0x3e0de431	0.1385658
197	0xbced5ccb	-0.028974911
198	0xbd642d9b	-0.055707555
199	0xbc84f671	-0.016230794
200	0xbd5ef9d4	-0.054437473
201	0x3d980432	0.07422675
202	0x3dbb1113	0.09134116
203	0x3e00a667	0.12563477
204	0x3e39f873	0.18161182
205	0xbcae3839	-0.021267043
206	0x3d08aebd	0.03336977
207	0xbe10995b	-0.14121
208	0x3e302057	0.17199837
209	0x3cb3c87d	0.021946186
210	0x3e39c132	0.18140104
211	0x3dbbfc33	0.091789626
212	0x3e123e72	0.14281633
213	0x3d6b5883	0.05745746
214	0x3e06307f	0.13104437
215	0x3c715d88	0.014731772
216	0x3d9f0884	0.07765296
217	0x3e11ae25	0.14226587
218	0x3d837505	0.06418804
219	0x3d78a3b3	0.06070299
220	0x3d90c0af	0.070680015
221	0x3c345904	0.011007551
222	0x3e032781	0.12808038
223	0xbd5fb880	-0.054619312
224	0xbc4bc2c3	-0.0124365715
225	0xbe15048e	-0.14552519
226	0xbda2009c	-0.079102725
227	0x3e3b44e6	0.18288001
228	0xbe15ac43	-0.14616494
229	0x3c92750d	0.01787808
230	0x3d0b234b	0.033969205
231	0x3d237ade	0.039912097
232	0x3db9e2a9	0.09076435
233	0xbdf1d0aa	-0.11807378
234	0xbce8654d	-0.028368616
235	0xbcfb02ef	-0.030641047
236	0xbcc0630d	-0.023484731
237	0xbe1db8fe	-0.154026
238	0xbd72edd6	-0.05930885
239	0xbe2188fc	-0.15774912
240	0x3e3e7dda	0.18602696
241	0x3b9e634c	0.0048336145
242	0x3c1568e9	0.009119251
243	0xbcd1e50c	-0.025621913
244	0x3e6744c2	0.22584823
245	0xbc0e9f79	-0.008705013
246	0xbdec85f7	-0.11548989
247	0x3e28f913	0.16501264
248	0xbdf34323	-0.1187804
249	0xbe1a5e54	-0.15075046
250	0x3a0bca28	0.0005332553
251	0x3e3b5e2e	0.18297645
252	0x3d4cf8f5	0.05004211
253	0xbdf3c18e	-0.11902152
254	0x3d5614f6	0.052266084
255	0x3dc12f40	0.0943284

lstm.bias_ih_l0 f4 [256]
0	0x3f6513fd	0.89483625
1	0x3f4589ed	0.77163583
2	0x3fd755dc	1.6823077
3	0x3ea2cef4	0.31798518
4	0x3f34315b	0.7038781
5	0x3f53fa51	0.8280383
6	0x3f1219ac	0.5707042
7	0x3f1973c5	0.59942275
8	0x3f1c4e35	0.61056834
9	0x3f805550	1.0026035
10	0x3ef04864	0.4693023
11	0x3f0e4653	0.55576056
12	0x3f1328a5	0.57483894
13	0x3f09eacb	0.5387389
14	0x3f2c4ec5	0.6730769
15	0x3f24c733	0.64366454
16	0x3f131554	0.5745442
17	0x3f42ead8	0.76139593
18	0x3f1df483	0.6170122
19	0x3f36d430	0.7141752
20	0x3f647ff0	0.8925772
21	0x3f52e790	0.82384586
22	0x3f0aeba5	0.54265815
23	0x3f1ca98d	0.61196214
24	0x3f20171e	0.62535274
25	0x3f2bf62b	0.671725
26	0x3f4ee3da	0.80816424
27	0x3f3c5d3e	0.73579776
28	0x3f110cd8	0.56660223
29	0x3fc6b1e2	1.5523036
30	0x3f275990	0.65371037
31	0x3faa45f4	1.3302598
32	0x3f00955b	0.502279
33	0x3f51cfa9	0.8195749
34	0x3f1ec854	0.62024426
35	0x3f031fa4	0.51220155
36	0x40064c20	2.0983963
37	0x3f448b96	0.7677549
38	0x3f1f6b28	0.6227288
39	0x3fa1f9ec	1.2654395
40	0x3f397c8a	0.72455657
41	0x3f2b6b52	0.6696063
42	0x3f0d6a17	0.55240005
43	0x3f11760b	0.56820744
44	0x3ef017d6	0.46893185
45	0x3f3ed374	0.745414
46	0x3ed26236	0.41090554
47	0x3fb51042	1.4145586
48	0x3f2e2fbb	0.6804158
49	0x3f1e773c	0.6190069
50	0x3f2dcf37	0.6789431
51	0x3f0d426a	0.55179465
52	0x3f29f1f0	0.6638479
53	0x3f32a936	0.69789445
54	0x3f4cf9fe	0.8006896
55	0x3f37c954	0.7179158
56	0x3f1de322	0.616747
57	0x3f2c8f54	0.674062
58	0x3f446b79	0.7672649
59	0x3f48c617	0.7842726
60	0x3f31fcf4	0.695266
61	0x3f86c7d7	1.0529736
62	0x3f55c121	0.83497816
63	0x3f49f05e	0.78882396
64	0x3d88d6fe	0.066816315
65	0x3db44ef8	0.088041246
66	0x3e7726ff	0.2413597
67	0x3d943004	0.07235721
68	0xbb90ad83	-0.0044152155
69	0xbd0d0c42	-0.034435518
70	0xbcfafc79	-0.030637966
71	0x3d3415f2	0.04396624
72	0xbd938856	-0.072037384
73	0x3e4d0d04	0.20024496
74	0xbda9d131	-0.08291853
75	0x3e07d23a	0.13263789
76	0xbd66c9b5	-0.056344707
77	0x3cbb4bb8	0.022863254
78	0x3d5d1c2c	0.053981945
79	0x3b6783ff	0.0035326479
80	0x3de65663	0.11246946
81	0x3db6aeaf	0.08920037
82	0xbdb74ed7	-0.089505844
83	0xbd987628	-0.074444115
84	0xbaa80cbd	-0.0012821179
85	0xbe6f07f8	-0.23342884
86	0x3e03b77c	0.12862962
87	0x3d172383	0.0368991
88	0x3de8396e	0.11339079
89	0xbdebe4d3	-0.11518254
90	0x3c895ec6	0.016768824
91	0xbe1d94de	-0.1538882
92	0x3e4fa27b	0.20276825
93	0x3c9f90db	0.019478252
94	0xbc6cf6ac	-0.014463108
95	0x3c6a7e6a	0.014312366
96	0x3d6f0302	0.058352478
97	0x3db5ead5	0.08882681
98	0x3cda74d5	0.026667038
99	0xbda5b4ef	-0.08091151
100	0x3d9fb91a	0.07798977
101	0xbd12fca2	-0.03588546
102	0x3c40771c	0.011747148
103	0xbe32f2ce	-0.17475435
104	0xbde8cf70	-0.113676906
105	0xbd8f28cf	-0.069902055
106	0x3e58be81	0.21166421
107	0xbd12c0a5	-0.03582825
108	0xbc66dc98	-0.01409068
109	0xbe2db4cf	-0.16963504
110	0x3d2222e0	0.03958404
111	0xbde4408a	-0.11145122
112	0xbd43f30d	-0.047839213
113	0x3d105929	0.03524128
114	0xbc3eecc8	-0.011653133
115	0x3dc4bc3d	0.09606216
116	0x3ba0e8ab	0.0049105487
117	0xbd4aa2fc	-0.04947184
118	0x3dbb7b84	0.09154418
119	0xbc89e315	-0.016831914
120	0x3d019baf	0.031642612
121	0xbd8a7274	-0.067601115
122	0x3d71cc5f	0.059032794
123	0xb9d582d7	-0.0004072401
124	0xbd5e3f86	-0.0542598
125	0x3e5a579b	0.21322481
126	0xbd284406	-0.041080497
127	0x3d88a47d	0.06671999
128	0xbdcb0f71	-0.099150546
129	0x3de093b9	0.10965676
130	0xbd797c31	-0.060909454
131	0xbe97cdfc	-0.2964934
132	0xbe90a5c2	-0.28251463
133	0x3eb7f897	0.35931846
134	0x3e79ee22	0.24407247
135	0xbee1b1e6	-0.44081038
136	0xbe62c95a	-0.22147122
137	0xbe3e50cd	-0.1858551
138	0xbe4ef35d	-0.20210023
139	0xbeb1d67d	-0.34733954
140	0xbe682b7c	-0.22672838
141	0x3e477e7f	0.19481848
142	0xbe0f7b19	-0.14011802
143	0x3e348d1f	0.17631958
144	0xbe7c8166	-0.24658737
145	0xbe47c5d1	-0.19509055
146	0xbe7300a3	-0.23730712
147	0x3ed09195	0.4073607
148	0xbf32e084	-0.69873834
149	0xbf30045f	-0.6875667
150	0x3e88df13	0.26732692
151	0xbea444f5	-0.3208386
152	0xbe0ea29a	-0.13929215
153	0xbef3768f	-0.4755139
154	0xbe8e1452	-0.27749878
155	0xbebd6808	-0.36993432
156	0xbe4de01c	-0.20105022
157	0x3f836790	1.026598
158	0xbeb8e4f8	-0.3611219
159	0x3f82a731	1.0207273
160	0xbe08ab4c	-0.13346595
161	0x3ef81285	0.4845163
162	0x3eea3f7e	0.45751566
163	0xbe7b1287	-0.24518786
164	0x3ddd807e	0.108155236
165	0x3eab2311	0.3342519
166	0xbe8133d6	-0.2523486
167	0xbf81f38a	-1.0152447
168	0xbe460f8b	-0.19341867
169	0x3e9b563f	0.30339238
170	0xbe73f145	-0.23822506
171	0xbe743085	-0.23846634
172	0xbe6f9f72	-0.23400667
173	0x3e1fcaf5	0.15604766
174	0xbe787568	-0.24263537
175	0xbc8c4e4f	-0.017127184
176	0xbe70b057	-0.23504768
177	0xbead6f22	-0.3387385
178	0xbe153696	-0.14571604
179	0xbea8f122	-0.3299647
180	0xbe98f2ca	-0.29872733
181	0x3eea9402	0.45816046
182	0x3e5471a3	0.20746474
183	0xbe869891	-0.26288274
184	0x3e1da464	0.15394741
185	0x3edf79c8	0.436476
186	0x3de2556f	0.110514514
187	0xbf0b7320	-0.5447254
188	0x3ee2b515	0.4427878
189	0x3da943b6	0.08264868
190	0x3f400024	0.75000215
191	0xbed5c3cb	-0.4175094
192	0x3f3b7cff	0.73237604
193	0x3f801cc7	1.0008782
194	0x3fe1942b	1.7623342
195	0x3eb9a3db	0.36257824
196	0x3f6a65e0	0.915617
197	0x3f3c4e78	0.73557234
198	0x3f1d6db1	0.614955
199	0x3f55a8ef	0.834609
200	0x3f457400	0.77130127
201	0x3f91593e	1.135536
202	0x3f202573	0.6255714
203	0x3f4c7803	0.79870623
204	0x3f2cc15c	0.67482543
205	0x3f1e55d9	0.61849743
206	0x3f2a2cd0	0.6647463
207	0x3f120dff	0.57052606
208	0x3f36117d	0.71120435
209	0x3f4f6136	0.8100771
210	0x3f22254e	0.6333817
211	0x3f31cfe1	0.69457823
212	0x3f721588	0.94564104
213	0x3f74cc03	0.956238
214	0x3f3d4e13	0.73947257
215	0x3f4efa5d	0.80850774
216	0x3f3fb8f7	0.7489161
217	0x3f587db9	0.8456684
218	0x3f57fa2a	0.84366095
219	0x3f39420f	0.7236642
220	0x3f2e2d87	0.6803822
221	0x3fbfc695	1.4982477
222	0x3f08cb62	0.5343534
223	0x3faf3882	1.368912
224	0x3f293b9f	0.661066
225	0x3f526c7b	0.8219678
226	0x3f2f912a	0.6858088
227	0x3f31c069	0.6943422
228	0x4007bf2c	2.1210432
229	0x3f2c05b9	0.6719623
230	0x3efe9bc0	0.49728203
231	0x3f98359d	1.1891361
232	0x3f31f461	0.6951352
233	0x3f446c15	0.7672742
234	0x3f49a2b0	0.78763866
235	0x3f020237	0.5078463
236	0x3f33e6fc	0.7027433
237	0x3f547c37	0.83002037
238	0x3eeae909	0.45880917
239	0x3f9c8932	1.2229369
240	0x3f31fc7b	0.6952588
241	0x3f430ab7	0.76188225
242	0x3f3de77e	0.74181354
243	0x3f3ee3a4	0.745661
244	0x3f38d142	0.721943
245	0x3f475ec9	0.77879006
246	0x3f471627	0.77768177
247	0x3f5a822f	0.85354894
248	0x3f301333	0.68779296
249	0x3f312f46	0.6921276
250	0x3f5938ac	0.848521
251	0x3f6d1a99	0.9261871
252	0x3f4e7ec1	0.8066216
253	0x3f8cb5e1	1.0993005
254	0x3f82a82f	1.0207576
255	0x3f22d7c4	0.6361048

lstm.bias_hh_l0 f4 [256]
0	0x3f50ce49	0.81564766
1	0x3f5ab400	0.8543091
2	0x3fe17602	1.7614138
3	0x3f0ad575	0.5423196
4	0x3f471dfa	0.77780116
5	0x3f47cbbd	0.78045255
6	0x3f2a898d	0.66616136
7	0x3f2e2398	0.6802306
8	0x3f0555bc	0.52083945
9	0x3f7b7afd	0.9823454
10	0x3f161273	0.586219
11	0x3f2c8854	0.6739552
12	0x3ef3542d	0.4752516
13	0x3f07a59d	0.5298708
14	0x3f39b13d	0.7253607
15	0x3f17ca9e	0.59293544
16	0x3f41eca2	0.757517
17	0x3f3a0673	0.7266609
18	0x3f174971	0.5909644
19	0x3f1fb691	0.6238795
20	0x3f638308	0.8887181
21	0x3f4a6fb7	0.79076713
22	0x3f21d7d9	0.6321998
23	0x3f13d5e7	0.57748264
24	0x3f23faa5	0.6405433
25	0x3f491588	0.7854848
26	0x3f2db89d	0.6785982
27	0x3f3431aa	0.7038828
28	0x3f25fec4	0.64841866
29	0x3fc3829f	1.5274237
30	0x3f186b6d	0.5953892
31	0x3fa5cce2	1.295315
32	0x3f328f53	0.69749945
33	0x3f533ad0	0.82511616
34	0x3f1d31cb	0.61404103
35	0x3f40cd4f	0.75313276
36	0x400635ff	2.0970457
37	0x3f0bb822	0.5457784
38	0x3efe6eb2	0.4969383
39	0x3f85fddd	1.0468098
40	0x3f1e34ee	0.61799514
41	0x3f07a1dc	0.5298135
42	0x3f17ab1d	0.59245473
43	0x3f15430e	0.5830544
44	0x3eff5eec	0.49877107
45	0x3f3cc89a	0.73743594
46	0x3edb8a4f	0.4287896
47	0x3f977dc0	1.1835251
48	0x3f471c63	0.7777769
49	0x3f46d425	0.77667457
50	0x3f2c8f56	0.67406213
51	0x3f36c11b	0.71388406
52	0x3f1a6b4a	0.6031996
53	0x3f34a6da	0.70567095
54	0x3f458344	0.7715342
55	0x3f221ae2	0.6332227
56	0x3f1fa8e6	0.62367094
57	0x3f237d4d	0.6386307
58	0x3f5e8f20	0.8693714
59	0x3f6933cc	0.9109466
60	0x3f381c7e	0.71918476
61	0x3f8d50a7	1.1040238
62	0x3f70b6ff	0.9402923
63	0x3f26e176	0.65187776
64	0x3dfb42f9	0.122686334
65	0x3c17e716	0.009271404
66	0x3e3ae2d5	0.18250592
67	0x3e34ab54	0.17643481
68	0x3d782fb6	0.060592376
69	0x3d135378	0.035968274
70	0x3e128c10	0.14311242
71	0xbc701091	-0.014652387
72	0xbe00810e	-0.1254923
73	0x3de43e54	0.11144701
74	0xbca97d7e	-0.020689722
75	0x3d8d3089	0.06894023
76	0xbabb70ae	-0.0014300549
77	0x3e0e82ad	0.13917036
78	0xbe10c18d	-0.14136334
79	0xbc781d24	-0.015143666
80	0xbdda7e42	-0.10668613
81	0xbda96afd	-0.082723595
82	0xbe1bd3ec	-0.1521756
83	0xbc88d267	-0.01670189
84	0x3cc698e8	0.024242833
85	0xbe70fdb1	-0.23534276
86	0xbb0dfbc6	-0.0021664961
87	0x3dca97a1	0.09892202
88	0xbc995af8	-0.018720135
89	0x385a8de3	5.2107393e-05
90	0xbcb4a044	-0.022049077
91	0x3cc92e0f	0.024558095
92	0xbc313380	-0.010815501
93	0xbcd276c4	-0.025691397
94	0x3d521dac	0.05129783
95	0x3d09327c	0.03349541
96	0x3cb623db	0.022233894
97	0x3e23e38d	0.16004772
98	0x3b63d79b	0.0034765962
99	0xbdd0735e	-0.101782545
100	0x3dd198d3	0.10234227
101	0xbd6ca4ca	-0.057774343
102	0xbd61a1da	-0.055085994
103	0xbe3895f3	-0.18025951
104	0xbe0b4819	-0.13601722
105	0x3d9d92db	0.07694026
106	0x3e44eba2	0.19230512
107	0xbddd22a4	-0.10797623
108	0x3c3e12c7	0.011601157
109	0xbe2c1956	-0.1680654
110	0x3d389af7	0.04506966
111	0x3d11955d	0.035542835
112	0x3dfc6017	0.12323015
113	0x3e26192b	0.16220538
114	0xbe52ee16	-0.20598635
115	0xbd313c38	-0.04327032
116	0x3d2b1c48	0.041775018
117	0xbdbf10cf	-0.09329378
118	0x3e3bb9ea	0.1833264
119	0xbc879f55	-0.016555468
120	0x3e02e8a2	0.12784055
121	0xbe0aa892	-0.13540867
122	0x3dc03cc1	0.09386588
123	0xbe0e1692	-0.13875797
124	0xbe0209ea	-0.12699094
125	0x3d1bbc52	0.038021393
126	0x3de35c05	0.11101536
127	0x3c028459	0.007966124
128	0xbe4fb825	-0.2028509
129	0x3dab432e	0.08362423
130	0xbcc8b195	-0.02449874
131	0xbe6f0358	-0.2334112
132	0xbeea5e8c	-0.4577526
133	0x3f05192f	0.5199155
134	0x3e61be11	0.22045161
135	0xbe662a34	-0.22477037
136	0xbe3724eb	-0.17885177
137	0x3d1a5e4c	0.037687585
138	0xbe6c79f6	-0.230934
139	0xbe933a05	-0.28755203
140	0xbe413e2c	-0.18871373
141	0x3e556382	0.2083874
142	0xbdbc41a7	-0.0919221
143	0x3e85af96	0.26110524
144	0xbd935aa8	-0.07195026
145	0xbeb9ff1b	-0.36327443
146	0xbe83d329	-0.2574704
147	0x3e98ac5f	0.2981901
148	0xbf08ed67	-0.5348725
149	0xbf12f827	-0.574099
150	0x3e93bb16	0.28853673
151	0xbe08bea4	-0.13353974
152	0xbe83ff68	-0.25780797
153	0xbebe54ef	-0.37174174
154	0xbec89b45	-0.3918096
155	0xbea116de	-0.3146276
156	0xbe6508cd	-0.22366638
157	0x3f941a34	1.1570497
158	0xbeecd2cf	-0.46254584
159	0x3f90019b	1.125049
160	0xbe1dbf6b	-0.15405051
161	0x3ea50fc0	0.3223858
162	0x3ef29b14	0.4738394
163	0xbe8e9a1a	-0.27851945
164	0xbd0964e3	-0.03354348
165	0x3e6829a6	0.22672138
166	0xbed7919f	-0.42103288
167	0xbf84126c	-1.0318122
168	0xbec39825	-0.38202015
169	0x3e838e21	0.25694373
170	0xbe5425d5	-0.20717557
171	0xbe670d8b	-0.2256376
172	0xbe7a854d	-0.24464913
173	0x3e62edfc	0.22161096
174	0xbe63369a	-0.22188798
175	0x3dbaf8d4	0.091294914
176	0xbe8ccb32	-0.27498776
177	0xbecc2270	-0.39870024
178	0xbe33530f	-0.17512153
179	0xbee941c1	-0.4555798
180	0xbec15adf	-0.37764642
181	0x3e8b776a	0.27239543
182	0x3e7698bd	0.24081703
183	0xbe946958	-0.2898662
184	0x3e82d4fd	0.25553122
185	0x3eb4700f	0.35241744
186	0x3e134379	0.14381208
187	0xbf332686	-0.6998066
188	0x3ee76a9f	0.45198533
189	0x3cfab624	0.03060443
190	0x3f10b362	0.56523716
191	0xbf1675e7	-0.58773655
192	0x3f764792	0.9620296
193	0x3f6f0922	0.9337331
194	0x3fda648b	1.7061933
195	0x3f0b176c	0.54332614
196	0x3f4ba0c5	0.7954219
197	0x3f54eef6	0.83177125
198	0x3f150de0	0.58224297
199	0x3f4ddd9f	0.8041629
200	0x3f1dd69c	0.6165559
201	0x3f84f6a9	1.0387775
202	0x3f074db9	0.5285297
203	0x3f297c21	0.6620503
204	0x3f2ccbe4	0.6749861
205	0x3f286abf	0.6578788
206	0x3f4d3165	0.80153495
207	0x3f05c8f1	0.5225974
208	0x3f56af7d	0.83861524
209	0x3f415906	0.75526464
210	0x3f1f1d9c	0.62154555
211	0x3f33bcca	0.70209944
212	0x3f56f29a	0.8396393
213	0x3f7bc0a8	0.98340845
214	0x3f259cd7	0.64692444
215	0x3f27ccb1	0.6554671
216	0x3f28e5b8	0.65975523
217	0x3f5cfd7f	0.86324304
218	0x3f4f9f9e	0.8110293
219	0x3f14e352	0.58159363
220	0x3f33dbeb	0.70257443
221	0x3fd3fa22	1.656071
222	0x3f12e642	0.57382596
223	0x3fac5956	1.3464763
224	0x3f3a26f5	0.72715694
225	0x3f543404	0.8289187
226	0x3f2c7158	0.6736045
227	0x3f29059d	0.6602419
228	0x40098927	2.148996
229	0x3f25e6db	0.6480538
230	0x3f2db92a	0.6786066
231	0x3f8fae6a	1.1225102
232	0x3f1462c8	0.5796323
233	0x3f4523ea	0.77007926
234	0x3f18a63d	0.5962866
235	0x3f21aae4	0.63151383
236	0x3f3a0e54	0.72678113
237	0x3f32df0d	0.698716
238	0x3f143369	0.57890946
239	0x3faf1a9b	1.3679994
240	0x3f34c413	0.70611686
241	0x3f55031a	0.8320786
242	0x3f13fffc	0.57812476
243	0x3f21befc	0.63182044
244	0x3f29dc47	0.6635174
245	0x3f404a7a	0.7511364
246	0x3f385e4b	0.7201888
247	0x3f576950	0.8414507
248	0x3f22e98c	0.63637614
249	0x3f4c8138	0.7988467
250	0x3f706b0d	0.93913347
251	0x3f7ec18f	0.99514097
252	0x3f2e2415	0.68023807
253	0x3f8fc2c5	1.1231314
254	0x3f7d7f5a	0.9902245
255	0x3f3a7c99	0.7284637

linear.weight f4 [2, 64]
0	0x3dd9c909	0.106340475
1	0x3f900127	1.1250352
2	0x401a3dd2	2.4100232
3	0xbecac5e1	-0.39604095
4	0xbf3e94e2	-0.7444593
5	0x3ef1141e	0.4708566
6	0x3e57fa11	0.21091487
7	0xbebfbd2b	-0.3744901
8	0xbf646f2d	-0.8923214
9	0xbfa85ae6	-1.315274
10	0xbf4f953d	-0.81087095
11	0xbeb62ff7	-0.3558347
12	0xbf652db8	-0.89522886
13	0x3f53e0c9	0.8276487
14	0xbf8d2018	-1.1025419
15	0x3f57ac82	0.842476
16	0xbf831550	-1.0240879
17	0xbe92238c	-0.28542745
18	0xbf5e7826	-0.8690208
19	0x3eb84043	0.35986528
20	0xbf08b814	-0.5340588
21	0xbf238815	-0.6387952
22	0x3e477ef5	0.19482024
23	0xbf6d28ce	-0.9264039
24	0xbcd8ce5b	-0.026465585
25	0xbf2e4865	-0.68079215
26	0xbece1bd3	-0.40255603
27	0xbf43f963	-0.7655241
28	0xbcbd2b37	-0.023091896
29	0x3f21379e	0.6297549
30	0xbed5c16f	-0.4174914
31	0x3f21c670	0.63193417
32	0xbf5fc1c2	-0.87405026
33	0x3f38d8ad	0.7220562
34	0x3edac031	0.42724755
35	0xbf56225c	-0.8364618
36	0xc04ce0ce	-3.201221
37	0x3e97b26d	0.29628316
38	0xbf0c045b	-0.54694146
39	0xbf17ed52	-0.593465
40	0xbf32c129	-0.6982599
41	0x3f38ce28	0.7218957
42	0xbdf44d58	-0.11928815
43	0xbf4494af	-0.76789373
44	0xbf592064	-0.8481505
45	0x3f6f55c5	0.9349025
46	0xbe77a698	-0.24184644
47	0x3ffdb882	1.9821932
48	0xbf56dfe0	-0.83935356
49	0xbed321b8	-0.41236663
50	0xbf81f7d5	-1.0153757
51	0xbeda0c41	-0.42587474
52	0xbeb67620	-0.35636997
53	0x3ebf0121	0.3730555
54	0x3e43be49	0.19115557
55	0xbe94ab29	-0.29036835
56	0x3f4b47d1	0.7940646
57	0x3f39f192	0.7263423
58	0x3f8e3e63	1.1112789
59	0xbf0a1fc7	-0.5395474
60	0x3ee29e34	0.44261324
61	0x3fc7af15	1.5600306
62	0x3f0eb221	0.55740553
63	0xbef14701	-0.47124484
64	0xbf8394ec	-1.0279822
65	0xbe8164da	-0.25272256
66	0xc03e83b3	-2.9767883
67	0xbf1ef33d	-0.620899
68	0xbeecd273	-0.4625431
69	0x3f3f9159	0.7483116
70	0x3f51495e	0.81752574
71	0xbf47efd6	-0.78100336
72	0xbe14f380	-0.14546013
73	0x3ef7c4ba	0.48392278
74	0xbe3701d9	-0.17871799
75	0xbf3f16db	-0.7464425
76	0xbe219504	-0.15779501
77	0x3e13277b	0.1437053
78	0x3e367ef5	0.17821868
79	0x3e450b3f	0.19242571
80	0xbd4fe803	-0.050758373
81	0xbf545667	-0.8294434
82	0xbe857e81	-0.26073077
83	0x3f37405d	0.71582586
84	0xbf2fabdd	-0.6862162
85	0xbf0e4e99	-0.5558868
86	0x3f5cc668	0.86240244
87	0xbe748234	-0.23877794
88	0xbf6ab2fe	-0.9167937
89	0xbef673c8	-0.4813521
90	0xbf4a89d0	-0.79116535
91	0xbed1d8fb	-0.40985855
92	0xbf6c90a8	-0.9240823
93	0x3f2c975a	0.67418444
94	0xbf261eb0	-0.64890575
95	0x3f1db330	0.61601543
96	0xbca4d078	-0.020118937
97	0x3efb8b31	0.49129632
98	0x3f3d168f	0.73862547
99	0xbe98a696	-0.29814595
100	0x406c5eb9	3.6932814
101	0x3f3dd25b	0.741491
102	0xbf04a293	-0.5181057
103	0xbf177e5c	-0.59177184
104	0xbebdd053	-0.37073
105	0x3ebceed0	0.3690095
106	0xbf5002bd	-0.8125418
107	0xbe64012f	-0.22266077
108	0xbe62d069	-0.22149815
109	0x3e31ae71	0.173517
110	0xbf354658	-0.7081046
111	0xbf95228a	-1.1651165
112	0xbea44992	-0.3208738
113	0xbf3fffff	-0.74999994
114	0xbbec6167	-0.0072137597
115	0xbf381ab7	-0.71915764
116	0xbf50458d	-0.81356126
117	0x3f5379f5	0.82607967
118	0x3f5c4d63	0.8605558
119	0xbf558f84	-0.8342211
120	0x3e471e2e	0.19445106
121	0x3eeb9b18	0.46016765
122	0xbd3a836f	-0.0455355
123	0xbf362001	-0.71142584
124	0x3f39f680	0.72641754
125	0xbf3ecb0f	-0.7452859
126	0x3f325e31	0.69674975
127	0xbf25a43f	-0.64703745

linear.bias f4 [2]
0	0x3ed15797	0.40887138
1	0x3efb43dc	0.4907521
