series_temporales_maxi/trabajo_final/src/best_model_params.pth (torch, 637642 bytes, 20 tensors)

cnn.0.weight f4 [16, 1, 3, 3]
0	0xbe810f55	-0.2520701
1	0x3d1567b2	0.036475845
2	0xbd35c177	-0.044373956
3	0xbe7591c1	-0.23981382
4	0x3e8e8b68	0.27840734
5	0xbd55b408	-0.052173644
6	0xbdb0e81e	-0.08638023
7	0x3dbcb4d5	0.092141785
8	0x3e3552b6	0.17707333
9	0x3d22e346	0.039767526
10	0x3def4614	0.11683288
11	0xbe26b1be	-0.16278741
12	0xbe6873a7	-0.22700368
13	0x3e9b08df	0.30280206
14	0x3ea2a06f	0.31763026
15	0xbe72e941	-0.23721792
16	0x3e6cab32	0.23112181
17	0xbbdb4891	-0.006692
18	0x3e3f14b2	0.18660238
19	0x3d3f389c	0.046684846
20	0xbcb4d900	-0.02207613
21	0xbe851f7b	-0.2600058
22	0x3e74b98e	0.23898908
23	0xbdd15ddf	-0.102229826
24	0x3e89e8cb	0.2693542
25	0x3e8adc15	0.27121034
26	0xbdd93d1f	-0.10607361
27	0x3e301d5d	0.17198701
28	0xbe8faf30	-0.28063345
29	0xbe1787db	-0.14797918
30	0x3e9f40bc	0.31104076
31	0x3d33418b	0.04376368
32	0x3ea86e36	0.32896584
33	0xbd973844	-0.07383779
34	0x3e8a3693	0.26994762
35	0x3d9d02aa	0.07666524
36	0xbde57536	-0.11203997
37	0xbdc43824	-0.095810205
38	0xbe62c655	-0.2214597
39	0xbea17afa	-0.31539136
40	0x3e6dc937	0.23221289
41	0x3cb03bab	0.021512827
42	0xbe789100	-0.24274063
43	0xbe79012c	-0.24316853
44	0xbe9579ea	-0.29194576
45	0x3dce3be6	0.100700185
46	0xbe9f7dc6	-0.31150645
47	0x3d014c1b	0.03156672
48	0x3e755b53	0.23960619
49	0xbe606da0	-0.21916819
50	0x3ea53f51	0.3227487
51	0xbe9dc774	-0.30816233
52	0xbd0f9500	-0.035054207
53	0xbdc8f3c6	-0.09812121
54	0x3ea59037	0.3233659
55	0xbd0a2321	-0.033724908
56	0xbe4414e3	-0.19148593
57	0x3e364a66	0.17801818
58	0x3e846f1c	0.2586602
59	0x3e7a567d	0.24447055
60	0x3e8ec24b	0.2788261
61	0x3e8a9aa3	0.27071103
62	0x3daae5e8	0.083446324
63	0x3d9c93ce	0.07645379
64	0x3dc32946	0.09529357
65	0x3e44e7d4	0.1922906
66	0xbe9a7cdb	-0.30173382
67	0x3bbdb3a4	0.005789237
68	0x3e34d479	0.17659177
69	0x3e5c26cd	0.21499176
70	0x3cb2e4ca	0.02183761
71	0xbe1548cd	-0.14578553
72	0xbe94f897	-0.2909591
73	0xbd846276	-0.064640924
74	0xbe7f332b	-0.24921863
75	0xbe1d132b	-0.15339343
76	0xbdba3106	-0.09091382
77	0xbd9ed060	-0.07754588
78	0xbe88413a	-0.26612264
79	0x3d300a2b	0.042978447
80	0xbd0c3a4b	-0.03423528
81	0xbe407388	-0.18794072
82	0xbe6dc856	-0.23220953
83	0xbd82fdcb	-0.063960634
84	0x3d85c7fb	0.06532284
85	0x3d428776	0.047492467
86	0xbdba4050	-0.09094298
87	0x3e0b1e6e	0.13585827
88	0xbdd6b9b0	-0.10484636
89	0xbea679fe	-0.32514948
90	0x3d00c311	0.03143603
91	0x3e7acc22	0.24491933
92	0xbe79ac08	-0.24382031
93	0x3d17c1f6	0.03705021
94	0x3e9b7404	0.3036195
95	0x3da2e7b5	0.07954351
96	0xbd1dc77a	-0.038520314
97	0xbe6de581	-0.2323208
98	0x3ea0176d	0.31267872
99	0xbea02059	-0.3127468
100	0xbe3f1205	-0.18659218
101	0xbdbde864	-0.092728406
102	0xbea44ec5	-0.32091346
103	0xbda9ce6f	-0.08291327
104	0xbe704c86	-0.23466691
105	0xbe5e544b	-0.21711843
106	0x3c4370bd	0.011928734
107	0x3e20173f	0.15633868
108	0x3e2726e3	0.16323428
109	0xbe456eae	-0.19280502
110	0xbea0fcdc	-0.31442916
111	0xbea69965	-0.32538906
112	0x3e9e0693	0.3086439
113	0x3e857b3a	0.26070577
114	0x3d7f382f	0.06230944
115	0xbe12391b	-0.14279597
116	0xbde014cc	-0.10941467
117	0xbd7611a2	-0.06007541
118	0xbe9be652	-0.30449158
119	0xba02cbd2	-0.0004989478
120	0xbe1c42ac	-0.15259808
121	0xbe8b5ead	-0.2722067
122	0x3e26e4be	0.16298196
123	0x3e9f1f4d	0.31078568
124	0x3ddc0d9f	0.107447855
125	0xbd65b911	-0.056084696
126	0x3dd44ea9	0.10366566
127	0x3e9d5692	0.3073011
128	0xbe96b990	-0.29438448
129	0x3bc249a6	0.0059291897
130	0x3e9a4a99	0.30135038
131	0xbe90949c	-0.2823838
132	0xbe923f1d	-0.28563777
133	0xbdf472d6	-0.11935966
134	0x3d16443c	0.036686167
135	0x3e4053d7	0.18781982
136	0x3da21f0a	0.079160765
137	0x3e86a38c	0.2629665
138	0xbdd45f5c	-0.10369751
139	0xbddf18a8	-0.10893375
140	0x3e543f13	0.20727186
141	0xbe0181bd	-0.12647147
142	0xbd7c64c0	-0.06161952
143	0xbe87873a	-0.26470357

cnn.0.bias f4 [16]
0	0x3ea3e848	0.32013154
1	0xbd0e39a3	-0.034722935
2	0x3ea61586	0.32438296
3	0xbdbe0a3b	-0.09279295
4	0x3e971b0a	0.29512817
5	0xbe397cc0	-0.18113995
6	0x3df203c4	0.118171245
7	0xbdc8afb0	-0.09799135
8	0xbe74f570	-0.23921752
9	0xbe7a03c6	-0.24415502
10	0x3e9226ca	0.2854522
11	0x3e92602c	0.28588998
12	0xbe3a9471	-0.18220688
13	0x3d6636c9	0.05620459
14	0x3e3ce087	0.18445025
15	0x3e694550	0.22780347

cnn.4.weight f4 [32, 16, 3, 3]
0	0xbd3934ee	-0.045216493
1	0x3d7a56b1	0.06111783
2	0xbc7b8fb8	-0.015354089
3	0x3ca44535	0.020052532
4	0xbc990988	-0.018681303
5	0xbd07b8c1	-0.03313518
6	0xbd936103	-0.07196238
7	0x3d3f8f22	0.04676736
8	0x3cb784f8	0.022402272
9	0xbbb5d586	-0.0055491356
10	0x3cce8600	0.02521038
11	0x3c996655	0.018725554
12	0xbaa76095	-0.0012769873
13	0xbd2ef0c2	-0.042710073
14	0x3d65f32f	0.05614012
15	0x3ce7aadb	0.028279712
16	0x3bcbf098	0.0062237494
17	0x3b6dd2ad	0.0036288903
18	0x3d454060	0.048157096
19	0xbc0cd88e	-0.008596553
20	0xbac5ffb3	-0.0015106112
21	0xbd46dad2	-0.048548527
22	0xbda8be37	-0.082394056
23	0xbc9cbfff	-0.01913452
24	0xbd9752bd	-0.07388828
25	0x3d85d637	0.06534999
26	0xbd0bce9d	-0.03413259
27	0xbc149620	-0.009068996
28	0xbcf6540e	-0.030069377
29	0x3da0dfa7	0.07855158
30	0x3b240395	0.002502655
31	0x3d1eb6ef	0.038748678
32	0x3cfb18b3	0.030651426
33	0xbd2d7fe2	-0.042358287
34	0x3cf6ec80	0.030142069
35	0xbd81ceea	-0.06338294
36	0x3c2c0b13	0.010500687
37	0xbd9ff585	-0.07810501
38	0x3da04df5	0.07827369
39	0x3d946e8f	0.0724765
40	0xbd9e725f	-0.07736658
41	0x39297af7	0.00016162904
42	0x3d090971	0.03345627
43	0x3c91e0ec	0.017807446
44	0x3d0461ac	0.03231971
45	0x3d8ee070	0.06976402
46	0x3d270838	0.040779322
47	0xbd34e678	-0.044165105
48	0xbc5f9856	-0.01364716
49	0x3d6ac9b0	0.05732125
50	0x3d7383e8	0.059451967
51	0xbce8b1dc	-0.028405122
52	0xbbc3214a	-0.005954896
53	0xbd638f7c	-0.05555676
54	0xbd893ad4	-0.06700674
55	0xbd45fbd6	-0.048335873
56	0xbc8aec6b	-0.016958436
57	0xbd9da9cf	-0.07698404
58	0xbc4ac46b	-0.012375931
59	0x3b36e200	0.0027905703
60	0xbc118160	-0.008880943
61	0xbd8760ef	-0.066102855
62	0xbd6cb89e	-0.057793252
63	0xba33f22e	-0.00068643957
64	0x3d73470a	0.05939392
65	0xbd26822b	-0.04065148
66	0xbd5309fc	-0.051523194
67	0xbd413951	-0.0471738
68	0x3d6b8e6f	0.057508882
69	0xbd4d24d9	-0.05008397
70	0x3d2a1223	0.041521203
71	0xbd26f67e	-0.040762417
72	0xbd0b50bb	-0.034012537
73	0x3d4db793	0.0502239
74	0xbc944086	-0.018097173
75	0x3c207b96	0.00979509
76	0xbcbdf29b	-0.023186972
77	0xbd671990	-0.056420863
78	0x3d37707e	0.044785015
79	0xbd061cf0	-0.03274244
80	0xbcc3dedb	-0.023909977
81	0xbd40fcce	-0.047116093
82	0x3d5a3cf0	0.05328077
83	0xbd88a03b	-0.066711865
84	0xbcf97e7b	-0.030455818
85	0x3da8d924	0.08244541
86	0x3b388a2b	0.0028158526
87	0x3d668008	0.056274444
88	0x3d4bd75e	0.049765937
89	0x3d1c2336	0.038119517
90	0x3d078b43	0.033091795
91	0xbd609c7f	-0.054836746
92	0x38ce8a22	9.848575e-05
93	0xbd86541a	-0.0655901
94	0xbd5d0b34	-0.053965762
95	0xbd826b77	-0.063681535
96	0x3d86e80a	0.06587227
97	0x3d608a3a	0.054819323
98	0x3cb591ec	0.022164308
99	0x3d85042d	0.06494937
100	0xbc52a6e0	-0.012857169
101	0x3d6c72eb	0.05772678
102	0xbd634c7d	-0.055492867
103	0x3a8d2860	0.0010769479
104	0x3d44b9c7	0.048028734
105	0x3d38b17e	0.045091145
106	0xbd4d64d1	-0.050144974
107	0x3d828096	0.06372182
108	0x3d0408d0	0.032234967
109	0x3da93683	0.082623504
110	0xbd8e6e14	-0.069545895
111	0xbcc2b3ad	-0.023767317
112	0xbd451ca6	-0.048123024
113	0x3c76d2d5	0.015064915
114	0xbd87a12f	-0.0662254
115	0x3da5678f	0.08076393
116	0xbd38e520	-0.045140386
117	0xbd81336d	-0.06308637
118	0x3d4203ab	0.04736678
119	0x3d09dbd7	0.03365692
120	0x3cd5c5a9	0.026095228
121	0x3d44b4c6	0.04802396
122	0xbd431c98	-0.04763469
123	0xbc0f45f5	-0.008744706
124	0x3c620b8b	0.013796697
125	0xbc51b1b1	-0.012798713
126	0x3d2115e1	0.039327506
127	0x3bd30aa7	0.006440479
128	0xbd91a0ab	-0.07110723
129	0xbd996c25	-0.0749133
130	0x3d70c86b	0.058784883
131	0x3bd09e3e	0.00636652
132	0xbc96040a	-0.018312473
133	0xbd087c7b	-0.03332184
134	0x3d9ae0f1	0.075624354
135	0xbd2737df	-0.040824767
136	0xbd39a249	-0.045320783
137	0xbd833306	-0.06406216
138	0x3b26df93	0.002546285
139	0xbd940134	-0.07226792
140	0x3d271fdc	0.040801868
141	0xbd641cfe	-0.05569171
142	0x3d5b21aa	0.0534989
143	0xbd180fbd	-0.037124384
144	0x3d405116	0.04695233
145	0x3d2fdcd2	0.0429352
146	0x3dac594d	0.0841547
147	0x3d443091	0.04789788
148	0x3d27c100	0.040955544
149	0xbd25ef7b	-0.04051159
150	0x3d96b7f2	0.073593035
151	0x3d5a5ddc	0.053312168
152	0x3d528e69	0.051405344
153	0x3d260e03	0.040540706
154	0x3ca8d674	0.020610072
155	0xbcbc49cf	-0.022984413
156	0x3d8d146b	0.0688866
157	0xbd57ed35	-0.052716453
158	0xbd805926	-0.06267004
159	0x3c92e3e9	0.017930942
160	0xbd28e1fd	-0.041231144
161	0x3d459285	0.048235435
162	0xbd2e6080	-0.0425725
163	0xba5e293f	-0.0008474774
164	0xbd9548cd	-0.07289276
165	0xbd4e81f7	-0.050416913
166	0xbd1b0c1e	-0.037853353
167	0xbda28e3e	-0.07937287
168	0xbc0aa415	-0.008461972
169	0xbd7d3e9e	-0.061827295
170	0xbb9a9a1c	-0.0047180783
171	0x3c4a12d7	0.012333593
172	0x3c215882	0.009847762
173	0xbd6ea1f6	-0.058259927
174	0x3d3727b2	0.04471559
175	0x3cad4fac	0.021156155
176	0x3c7acd02	0.015307667
177	0x3d31ec9b	0.043438535
178	0xbd0b2fbd	-0.033981074
179	0xbd43582c	-0.04769151
180	0x3d47afbb	0.048751574
181	0x3b98c3d2	0.0046620155
182	0x3d96af02	0.07357599
183	0xbd83c236	-0.06433527
184	0x3bdc5af2	0.0067247087
185	0xbda4614a	-0.08026369
186	0x3c85767e	0.016291853
187	0x3da7d92f	0.08195721
188	0x3cf6f067	0.03014393
189	0x3c870a80	0.016484499
190	0xbd6490f8	-0.055802315
191	0xbd86a6f0	-0.065748096
192	0xb9111aab	-0.00013838212
193	0x3d945672	0.07243051
194	0x3d719e63	0.05898894
195	0xbc82d938	-0.015972719
196	0xbd9006c6	-0.07032542
197	0xbc517f4b	-0.012786697
198	0xbbc5a3d9	-0.006031495
199	0x3cc92499	0.024553584
200	0x3d329b81	0.04360533
201	0x3ce3ae76	0.02779315
202	0x3d13ca0e	0.036081366
203	0x3d85bda6	0.06530313
204	0x3d6a9a2d	0.05727594
205	0xbd278527	-0.04089847
206	0x3d817b65	0.06322364
207	0x3da83dfa	0.08214946
208	0x3c1b0ca7	0.009463466
209	0x3d258340	0.040408373
210	0xbc8da6ac	-0.01729139
211	0xbc003821	-0.007825882
212	0x3c87cf57	0.01657836
213	0xbcdadbe6	-0.026716184
214	0x3d7f647f	0.0623517
215	0xbd7943af	-0.060855564
216	0x3d7e57a3	0.062095296
217	0x3d63ae68	0.05558625
218	0x3ceddf50	0.029037148
219	0x3d8decce	0.069299325
220	0xbd4cbc9e	-0.049984567
221	0x3caa9bab	0.020826181
222	0x3c03244b	0.008004258
223	0x3d1d5b4b	0.038417142
224	0xbcc71b86	-0.024305116
225	0x3cfa4db6	0.030554634
226	0x3ca8b960	0.020596206
227	0xbd782260	-0.060579658
228	0xbc8aad9b	-0.016928485
229	0x38e5e556	0.00010962288
230	0xbcf04eb6	-0.029334407
231	0x3bd82fc0	0.006597489
232	0xbd1fdb2b	-0.039027374
233	0xbd22f90e	-0.0397883
234	0x3c103bf3	0.0088033555
235	0x3c7ceaf6	0.015436878
236	0x3cb07e26	0.021544527
237	0xbcf71ab8	-0.030164108
238	0x3d94e385	0.072699584
239	0x3d1431de	0.03618037
240	0xbccbc3d1	-0.024873646
241	0x3c8abcac	0.016935669
242	0x3d9db3be	0.07700299
243	0xbd9f7422	-0.077858225
244	0x3d61771e	0.05504524
245	0x3bb71866	0.0055876253
246	0xbc1bbd21	-0.009505541
247	0x3d93df26	0.072202966
248	0x3d19caf7	0.037547078
249	0x3b832bb7	0.004003014
250	0x3d5ca26c	0.053865835
251	0xbcc871b4	-0.02446828
252	0xbb2ed7a6	-0.002667883
253	0x3d9119d3	0.07085004
254	0xbc963b83	-0.018338924
255	0x3d39ec8b	0.0453916

cnn.4.bias f4 [32]
0	0x3da4fdc8	0.080562174
1	0xbc231453	-0.009953576
2	0xbd96b4e6	-0.073587224
3	0x3d899e8e	0.06719695
4	0x3c9984c1	0.01874006
5	0xbc7a4071	-0.015274153
6	0xbcee5db5	-0.029097417
7	0xbd0693ee	-0.03285592
8	0x3cb0a6aa	0.021563847
9	0x3d36e206	0.044649146
10	0x3a0a4b55	0.00052755076
11	0x3c1737d6	0.009229621
12	0xbd715665	-0.058920283
13	0x3d56dca8	0.052456528
14	0xbd71144d	-0.05885725
15	0xbd8fd49d	-0.07022975
16	0x3c215ef5	0.0098493
17	0x3c2c4868	0.01051531
18	0xbb177973	-0.002311316
19	0xbd09ff16	-0.033690535
20	0xbbe352c1	-0.0069373553
21	0x3d31b00e	0.04338079
22	0x3cc20837	0.023685558
23	0xbd9f20ee	-0.07769953
24	0x3d39ce86	0.04536297
25	0xbb0ba8ea	-0.0021310397
26	0xbd2662e0	-0.04062164
27	0xbd95f83d	-0.07322738
28	0xbd0bdb21	-0.034144524
29	0x3d91217d	0.070864655
30	0x3ca35547	0.019938124
31	0xbb4bb7b8	-0.0031084847

cnn.9.weight f4 [20, 3200]
0	0x3bae32eb	0.0053161285
1	0x3bfe6e6c	0.007764628
2	0xbc56f3eb	-0.013119678
3	0xbc74c111	-0.014938609
4	0xbc419f77	-0.011817805
5	0xba435cbe	-0.00074524793
6	0xbc0d6490	-0.008629933
7	0xbc1d1eee	-0.009589894
8	0xbc7fb59e	-0.015607266
9	0x3b669db1	0.0035189206
10	0xbc894eb9	-0.01676117
11	0xbc8b24fd	-0.01698541
12	0xbc415df2	-0.011802183
13	0xbb205687	-0.0024465637
14	0xbc363a0b	-0.011122237
15	0x3c85171e	0.016246375
16	0x3b620541	0.0034487995
17	0x3bbd367e	0.0057743182
18	0x3c553b43	0.013014617
19	0x3bd17fd1	0.0063934107
20	0xbbd78c7e	-0.0065780273
21	0x3be3cd07	0.0069519314
22	0xbc0aeb51	-0.008478955
23	0x3c06cac2	0.008227052
24	0xbc3b3886	-0.01142705
25	0x3ba82f95	0.0051326253
26	0xba0b6fc7	-0.00053190853
27	0x3c7fe999	0.015619659
28	0x3c3e4ac0	0.0116145015
29	0x3b742305	0.0037252319
30	0x3c3799ee	0.011206133
31	0x3c667737	0.014066509
32	0x3c1ec959	0.00969156
33	0x3960fb70	0.00021455972
34	0xbb310c0f	-0.0027015244
35	0x3c8626bb	0.01637589
36	0xbb5e1883	-0.0033889122
37	0x3c8b6c7f	0.017019508
38	0xb9f623af	-0.00046947363
39	0x3b4b28f6	0.0030999756
40	0xbbe96883	-0.0071230545
41	0x3b783edd	0.0037879266
42	0x3bbc3cc9	0.005744551
43	0x3bc3a3ea	0.005970468
44	0xbb00a59f	-0.0019629968
45	0xbc072265	-0.008247946
46	0x3c8b705b	0.017021349
47	0xbc36c133	-0.011154461
48	0x3bd366c0	0.0064514577
49	0x3c62a900	0.013834238
50	0xba0c0cfa	-0.000534251
51	0xbc2609ea	-0.0101342
52	0xbbf98459	-0.007614654
53	0xbbb76a18	-0.005597364
54	0x3c135c5f	0.008994191
55	0xbb14ef8f	-0.0022725796
56	0x3b5e229d	0.0033895143
57	0xbbffe34b	-0.007809078
58	0x3c3e3d1f	0.011611252
59	0x3c61e99c	0.013788607
60	0xbc064e6f	-0.008197411
61	0x3bdf2807	0.0068101916
62	0xbc33acda	-0.010966504
63	0x3c75f0e0	0.015011042
64	0x3c11bd94	0.008895297
65	0x3c51fb32	0.012816237
66	0x3c44193b	0.011968906
67	0xbc1396bd	-0.009008107
68	0xbc84e552	-0.01622263
69	0x3b982a51	0.0046437164
70	0x3c1b1be9	0.0094671035
71	0xbb191a54	-0.002336164
72	0x3af21beb	0.0018471455
73	0xbc745ddc	-0.014914956
74	0x3c32855d	0.010896054
75	0x3b3f71ea	0.0029212185
76	0xbba428dd	-0.005009754
77	0xbc20f32a	-0.0098236
78	0x3c831ddc	0.016005449
79	0x3bf0bfb6	0.0073470725
80	0x3b5191ba	0.003197773
81	0x3c159618	0.009130023
82	0xbbb6668b	-0.0055664233
83	0xbb1c7c1f	-0.0023877693
84	0xb9fe603c	-0.00048518355
85	0xbbcffdfe	-0.006347417
86	0xbc317b3e	-0.010832606
87	0x3c31a53a	0.010842616
88	0x3c20d34f	0.009816005
89	0x3c265625	0.010152374
90	0x3ba8685d	0.005139394
91	0xbbf55d03	-0.0074878945
92	0xbc6dded8	-0.014518462
93	0x3c0511d9	0.008121931
94	0x3c254e31	0.010089443
95	0x3c81149a	0.015756894
96	0xbc0bf922	-0.008543285
97	0xbc773320	-0.015087873
98	0x3c4150e0	0.011799067
99	0xbbf6a2c4	-0.0075267274
100	0x3bfeccc8	0.0077758767
101	0x3b93f668	0.004515458
102	0x3c4613a8	0.012089647
103	0xbada2b80	-0.0016645044
104	0x3bc631d6	0.0060484214
105	0xbbbdc084	-0.005790772
106	0x3c76fbd1	0.015074686
107	0xbc53ed06	-0.012934929
108	0xbc49e6f3	-0.012323129
109	0x396706c4	0.00022032397
110	0xbbcd8e7e	-0.00627309
111	0x3c8307a4	0.015994854
112	0x3c4c3bee	0.01246546
113	0xbb9bbc03	-0.0047526374
114	0x3b81c030	0.003959678
115	0xbc416050	-0.011802748
116	0xbb067c23	-0.0020520769
117	0x3b3e1c38	0.002900852
118	0x3c8b9cee	0.017042603
119	0xbbec3a75	-0.007209117
120	0xbb768880	-0.0037617981
121	0xbc5079ef	-0.012724384
122	0x3c75142d	0.014958424
123	0xb9222ee2	-0.00015466989
124	0x3c48b671	0.012250529
125	0xbc241765	-0.010015343
126	0x3beb1a18	0.0071747415
127	0xbc2a9f80	-0.010414004
128	0x3b9d41be	0.004799097
129	0xbc29dfc5	-0.010368292
130	0xbc5573db	-0.01302811
131	0x3c843074	0.016136386
132	0xbc8062d7	-0.01567213
133	0xbc1c236b	-0.009529929
134	0x3c78be70	0.015182123
135	0xbc23a002	-0.009986879
136	0x3c8e17dd	0.017345363
137	0xbc5a14e2	-0.013310643
138	0x3c149f2e	0.0090711545
139	0x3c96cc89	0.018408077
140	0xbbed9b23	-0.0072511598
141	0x3c58b35f	0.013226359
142	0xbc462af1	-0.012095199
143	0xbc2c089d	-0.0105001
144	0xbad1ab5d	-0.0015996505
145	0xbc2691a1	-0.010166557
146	0xbb56f65f	-0.0032800657
147	0x3b024754	0.001987894
148	0x3c7ff779	0.015622967
149	0xbc07a5ca	-0.008279273
150	0xbc34bacf	-0.011030867
151	0x3c3fc136	0.01170378
152	0x3c865010	0.016395599
153	0xbbf3f18f	-0.0074445675
154	0x38fac28a	0.00011957165
155	0xbc5d22ea	-0.013497094
156	0x3b999b3a	0.004687694
157	0xbc7b5ed1	-0.01534243
158	0xbc30bc63	-0.010787102
159	0xbb486c44	-0.003058211
160	0x3beee7a2	0.0072907964
161	0x3c9ea77b	0.01936697
162	0xbc650f0f	-0.013980641
163	0x3c42a2f2	0.0118796695
164	0xbc1e716e	-0.009670598
165	0xbc51f301	-0.012814284
166	0x3c809ce0	0.015699804
167	0xbc058ad1	-0.008150772
168	0x3c1c3345	0.009533708
169	0xbb2f41f2	-0.0026742187
170	0x3c36c50d	0.011155379
171	0x3ab5fd5e	0.0013884713
172	0x3b37a62e	0.0028022635
173	0x3c713819	0.014722847
174	0x3c9c0d6d	0.01904937
175	0x3c13a9f0	0.009012684
176	0xbc1cb83a	-0.009565407
177	0x3c9afa1e	0.018918093
178	0xbb8733df	-0.0041260566
179	0xbb95ee96	-0.004575561
180	0xbad6e416	-0.0016394879
181	0x3833586e	4.2759282e-05
182	0xbc196c92	-0.009364264
183	0x3ba1f104	0.0049420614
184	0xba55fda5	-0.0008163101
185	0x3c0d7f16	0.008636257
186	0xbb8b963a	-0.0042598518
187	0xbb30a388	-0.002695294
188	0xbb969b2c	-0.0045961346
189	0xbc320fbd	-0.01086801
190	0xbc6ff6fd	-0.014646289
191	0x3c945e91	0.018111499
192	0x3c2dcdc2	0.0106081385
193	0xbbf33d49	-0.0074230772
194	0x3c837c25	0.016050408
195	0xbbe2a8d3	-0.006917098
196	0x3c994afb	0.018712511
197	0x3bd2e912	0.0064364756
198	0xbb22c566	-0.0024836897
199	0xbc33d808	-0.010976799
200	0x3c80ca71	0.015721532
201	0x3c7cd105	0.0154306935
202	0x3c88c7cd	0.016696835
203	0xbc72525c	-0.014790144
204	0x3b9256c7	0.004465911
205	0xbc6f5448	-0.014607497
206	0x3c177f8d	0.009246719
207	0xbba89f67	-0.0051459554
208	0x3c21a15c	0.009865131
209	0x3c5c035e	0.013428537
210	0x3c8097d4	0.015697397
211	0x3b05681b	0.002035624
212	0x3a690ea2	0.0008890425
213	0x38ce9bd6	9.851872e-05
214	0x3bb2cfb5	0.0054568895
215	0x3bdcd9ef	0.006739847
216	0xbb9f54b4	-0.0048623923
217	0xbbb1f67a	-0.0054309936
218	0x3afb86c3	0.0019189942
219	0xbb9f5998	-0.0048629753
220	0x3c335cf8	0.010947458
221	0x3bb5effb	0.0055522895
222	0xbb645a03	-0.003484369
223	0xbb987824	-0.0046529938
224	0xbc046b79	-0.008082264
225	0x3b9e7a78	0.0048363768
226	0xbc5e478f	-0.013566866
227	0x3b898343	0.004196556
228	0x3af46e2b	0.0018648555
229	0xbbb19365	-0.005419182
230	0x3b452b90	0.003008578
231	0x3a812b96	0.0009854909
232	0x3c2dd2c2	0.010609331
233	0xb8ff5328	-0.000121748366
234	0x3aa6b30e	0.0012718157
235	0x3b9f1806	0.0048551587
236	0x3c92daba	0.017926563
237	0xbc3ff747	-0.01171667
238	0xbc5eba54	-0.013594229
239	0x3c78973e	0.015172778
240	0xb863b87e	-5.429284e-05
241	0xbc27ed7a	-0.01024949
242	0x3c1b5993	0.009481805
243	0x3c7f3598	0.015576743
244	0x3c14cc85	0.009081964
245	0xbc5c2420	-0.013436347
246	0x3c2119d2	0.009832816
247	0xbc35b5b5	-0.011090686
248	0x3c4d26ce	0.012521459
249	0x3b718cad	0.003685753
250	0xbc5ccb70	-0.013476238
251	0x3bdbd4c0	0.0067087114
252	0xbc857083	-0.016289001
253	0x3c64ed77	0.013972632
254	0xbc1790da	-0.009250844
255	0xbc2bedbb	-0.010493691

cnn.9.bias f4 [20]
0	0x3b5240cd	0.0032082081
1	0x3c21d1f3	0.009876716
2	0x3bf3acd1	0.007436373
3	0x3b876652	0.0041320706
4	0x3c728fc3	0.014804783
5	0x3a9c1ab0	0.0011909809
6	0xbc806856	-0.015674751
7	0xbc87f27f	-0.016595123
8	0x3c7ee162	0.015556665
9	0xbba8b27e	-0.005148231
10	0xbc24332d	-0.010021967
11	0x3c32240a	0.01087285
12	0xbbb04788	-0.005379621
13	0xbc91126e	-0.017708983
14	0xba0a2473	-0.00052697136
15	0x3b4ad419	0.0030949174
16	0x3c093e7b	0.008376713
17	0xbc47c91e	-0.012193946
18	0xbc293ae1	-0.010328979
19	0xbb7f221c	-0.0038930243

lstm.weight_ih_l0 f4 [256, 20]
0	0x3d17071d	0.036872018
1	0xbcff2f3c	-0.031150453
2	0x3c8b4ec8	0.01700534
3	0x3dbb5bf7	0.091484
4	0x3deb47c9	0.11488301
5	0xbde85bf9	-0.113456674
6	0xbdbc1ce2	-0.091851965
7	0x3dd80b29	0.10549004
8	0xbcb3029a	-0.021851826
9	0x3cc1c327	0.023652626
10	0xbdd90022	-0.105957285
11	0xbdbf7924	-0.093492776
12	0x3dd69348	0.104773104
13	0xbcdd1501	-0.026987555
14	0xbbd70778	-0.0065621696
15	0x3d5baf60	0.053634048
16	0xbda2b19a	-0.07944031
17	0x3c956c8a	0.018240232
18	0x3d1d7243	0.038439047
19	0xbd454ca4	-0.048168793
20	0x3d02b43e	0.031910174
21	0x3ca36ce0	0.019949377
22	0x3c604303	0.013687852
23	0x3b919630	0.0044429526
24	0x3dea5110	0.11441243
25	0x3dd28dc0	0.10280943
26	0xbda441fe	-0.080203995
27	0xbd842146	-0.06451659
28	0xbdb5bd9d	-0.088740565
29	0x3cf546f3	0.029941058
30	0xbde95774	-0.113936335
31	0xbdc09bd6	-0.09404723
32	0xba906b61	-0.001101833
33	0xbcfde42c	-0.03099259
34	0x3d8518d3	0.064988755
35	0xbdc4b546	-0.09604888
36	0x3d43f715	0.047843058
37	0x3dd54a1e	0.10414527
38	0x3df0604c	0.11737117
39	0xbd612d94	-0.054975107
40	0xbde453e8	-0.11148816
41	0x3d4765fd	0.048681248
42	0xbdcc41f2	-0.099735156
43	0x3d2e91f8	0.042619675
44	0x3da950e7	0.08267384
45	0xbd30a995	-0.043130476
46	0xbc09545e	-0.008381931
47	0xbd9b3f71	-0.0758046
48	0xbdb2dea3	-0.08733871
49	0x3c4f3d4d	0.012648893
50	0x3df3edd1	0.11910594
51	0xba319f5d	-0.0006775761
52	0x3ccc6ceb	0.02495428
53	0x3d759f55	0.059966404
54	0x3cbc6d56	0.023001354
55	0x3de03a0c	0.109485716
56	0xbdd71b32	-0.10503234
57	0xbdb04ddc	-0.086086005
58	0xbdd4a80b	-0.10383614
59	0xbd44574c	-0.047934815
60	0x3db276f6	0.08714096
61	0x3d2548d5	0.04035266
62	0x3d4f3e93	0.050596785
63	0x3dfd53fa	0.12369533
64	0xbd4fdedb	-0.05074964
65	0xbd98633f	-0.07440805
66	0x3c0042da	0.007828439
67	0x3dd0b300	0.101903915
68	0x3d3149a7	0.04328313
69	0xbdb0af16	-0.08627145
70	0xbcd9c042	-0.026580933
71	0x3ddf544b	0.109047495
72	0x3dc806d6	0.09766929
73	0xbdb9a5ef	-0.090648524
74	0xbd78c177	-0.060731377
75	0x3c319f0f	0.010841145
76	0xbdddf553	-0.108378075
77	0xbc4827f8	-0.012216561
78	0xbdbae5b7	-0.09125846
79	0x3bd0d7da	0.0063733878
80	0x3b41912e	0.0029535997
81	0x3ce1d4e2	0.02756733
82	0x3cbcb58d	0.023035789
83	0x3bbcedf8	0.005765673
84	0xbd15629d	-0.036470998
85	0x3d0ba666	0.034094237
86	0x3db8bed5	0.09020773
87	0x3dbc5899	0.09196586
88	0xbd281453	-0.041035008
89	0x3d958065	0.0729988
90	0x3d99c70e	0.0750867
91	0x3d975544	0.0738931
92	0xbd9522bb	-0.07282015
93	0x3d261885	0.040550727
94	0x3d06de3c	0.032926783
95	0x3d1c0e09	0.038099322
96	0x3ae2b84b	0.0017297355
97	0xbd93d015	-0.07217423
98	0x3cedf3a1	0.029046835
99	0x3dc1b99e	0.09459232
100	0xbde09288	-0.109654486
101	0x3dad70bc	0.08468768
102	0x3bd5f593	0.006529519
103	0x3d490b53	0.049083065
104	0xbdb44f08	-0.088041365
105	0x3d8c4cb3	0.06850567
106	0xbde0d6ac	-0.109784454
107	0xbdb6dcde	-0.08928846
108	0xbdbc043a	-0.09180494
109	0x3c061f9c	0.008186247
110	0x3cb9e637	0.022692783
111	0xbdcdbdf8	-0.10045999
112	0xbd923be6	-0.07140331
113	0x3db5c364	0.088751584
114	0x3d2bb98f	0.04192501
115	0xbdd38efc	-0.103300065
116	0xbdba8c85	-0.09108833
117	0xba453a9c	-0.0007523687
118	0x3d2972e3	0.04136933
119	0xbdfe5f72	-0.124205485
120	0xbd954a8a	-0.07289608
121	0xbb35c0dc	-0.0027733361
122	0xbd141141	-0.036149267
123	0xbbc10e3d	-0.00589159
124	0x3d38db71	0.04513115
125	0xbd8bd1ff	-0.06827163
126	0x3d3ef2a8	0.046618134
127	0xbdb3bd29	-0.08776314
128	0x3c901dc2	0.017592315
129	0xbc4e1526	-0.012578284
130	0x3dfc8708	0.12330443
131	0xbce0abf3	-0.027425742
132	0x3ce67796	0.028133195
133	0x3d2c8215	0.042116243
134	0xbd94d6fb	-0.07267567
135	0x3d44c061	0.04803503
136	0x3d7f837c	0.062381253
137	0x3c0c1416	0.008549711
138	0x3da849d2	0.08217205
139	0x3db29558	0.08719891
140	0xbd9f407d	-0.07775972
141	0xbc91f889	-0.017818706
142	0x3b6d81a2	0.0036240597
143	0xbdefeeae	-0.117154464
144	0x3cd36ebc	0.025809638
145	0xbc98f0c9	-0.018669503
146	0xbde61b78	-0.11235708
147	0x3cc7fc7f	0.024412392
148	0xbd01ec5a	-0.031719543
149	0x3cdb0ba2	0.026738945
150	0xbc9906cd	-0.01868
151	0x3ad2ddfa	0.0016087883
152	0x3e0022fd	0.12513347
153	0x3da641f8	0.08118051
154	0x3cb99647	0.022654666
155	0xbdc26a61	-0.094929464
156	0xbba1ff61	-0.0049437736
157	0x3d052834	0.032509044
158	0x3db1c648	0.08680397
159	0x3d1514a7	0.03639665
160	0xbd0a5bfc	-0.03377913
161	0xbc965019	-0.01834874
162	0xbc78325a	-0.0151487235
163	0xbd961de7	-0.07329922
164	0xbb6bae5a	-0.0035962076
165	0xbdd3ea50	-0.10347426
166	0xbd6597bd	-0.056052912
167	0x3d72ebd8	0.05930695
168	0x3d91c236	0.07117121
169	0x3dd4162d	0.10355792
170	0x3d5ebf8f	0.054381903
171	0x3d29f2c3	0.04149128
172	0xbdf91435	-0.12162057
173	0xbd4ed2a7	-0.050493862
174	0xbddc3f95	-0.10754315
175	0x3df002c0	0.117192745
176	0xbcac41ba	-0.021027435
177	0xbd628cf4	-0.055310205
178	0x3de25b95	0.11052624
179	0xbda8def5	-0.08245651
180	0xbd72c337	-0.059268203
181	0x3d4e3b2e	0.050349407
182	0xbd1d2696	-0.038366877
183	0x3c88023b	0.016602626
184	0xbd31a496	-0.043369852
185	0x3d95c28d	0.07312498
186	0xbdac28a4	-0.08406189
187	0xbd44ab81	-0.04801512
188	0xbdc1637c	-0.09442803
189	0x3c051e53	0.008124906
190	0xbdca7113	-0.098848484
191	0xbd895f6b	-0.06707653
192	0xbd70afc9	-0.05876139
193	0x3dc11e7b	0.09429642
194	0xbdaf1d80	-0.085505486
195	0x3d1149d0	0.035470784
196	0xbdb4c277	-0.08826154
197	0xbde44b3a	-0.11147161
198	0xbde6aadc	-0.112630576
199	0x3d73320f	0.05937391
200	0xbd039e87	-0.032133605
201	0x3b9c8abf	0.004777282
202	0xbdd0fdf3	-0.10204687
203	0x3de4ef49	0.111784525
204	0xbdda5f53	-0.10662713
205	0xbdc78eea	-0.097440556
206	0xbb845269	-0.0040381444
207	0xbd3cab6c	-0.04606192
208	0xbda2aba8	-0.07942897
209	0x3c83c873	0.016086793
210	0xbdfb1d48	-0.12261444
211	0x3d94a0e2	0.072572485
212	0x3c8eb033	0.017418003
213	0x3dc595e1	0.09647728
214	0xbb23abf4	-0.0024974318
215	0x3ac98330	0.001537418
216	0x3d19521e	0.03743183
217	0xbdac9ec1	-0.084287174
218	0x3cdb466e	0.026766982
219	0x3d78c975	0.060739
220	0xbdc12f5a	-0.0943286
221	0xbdc8b89f	-0.09800839
222	0x3a9782c0	0.0011559352
223	0x3d708882	0.058723934
224	0xbdd53977	-0.10411351
225	0x3d691ab0	0.056910217
226	0x3c9ad87d	0.018902058
227	0x3d91bba4	0.07115868
228	0x3d3444c9	0.04401091
229	0x3df3c4fc	0.11902806
230	0xbdadcf74	-0.08486834
231	0xbdd94b49	-0.10610063
232	0x3df06d34	0.11739579
233	0x3dc0cb0c	0.09413728
234	0x3d8d5cff	0.06902503
235	0xbdcc5b84	-0.09978393
236	0xbd3b7a7a	-0.0457711
237	0xbda0dc4b	-0.078545175
238	0x3d852d42	0.06502773
239	0x3dc933a5	0.098243035
240	0xbca34991	-0.01993254
241	0x3d76258c	0.0600944
242	0xbdc926d8	-0.09821862
243	0xbd9b5445	-0.075844325
244	0x3df01036	0.11721842
245	0xbd5e5b59	-0.054286335
246	0x3de44a17	0.11146944
247	0xbd55ba8e	-0.052179866
248	0xbdf01868	-0.11723405
249	0x3d2d6e5b	0.04234157
250	0x3da03847	0.07823234
251	0x3dabea0a	0.08394249
252	0x3d82f3c7	0.06394153
253	0x3ca8cc44	0.020605214
254	0xbd01bdf0	-0.03167528
255	0xbd58504b	-0.05281095

lstm.weight_hh_l0 f4 [256, 64]
0	0x3dd83ffe	0.105590805
1	0xbde930a8	-0.113862336
2	0x3d4d5b57	0.050135937
3	0x3d798f8e	0.06092792
4	0x3defee5b	0.117153846
5	0x3d666bad	0.05625503
6	0x3b8d1d45	0.0043064677
7	0xbda8d824	-0.082443506
8	0x3b9daf0e	0.004812128
9	0xbdee924d	-0.116489984
10	0xbd940004	-0.072265655
11	0x3c15896e	0.009127004
12	0x3d8f1b28	0.069876015
13	0x3d040cc4	0.032238737
14	0x3df7e55b	0.12104293
15	0xbdfd1abd	-0.123586155
16	0x3e003eb4	0.1252392
17	0xbc9c127d	-0.019051785
18	0x3da48272	0.08032693
19	0x3c0efbf6	0.008727064
20	0x3d452c4d	0.04813795
21	0xbdf51ed3	-0.1196877
22	0xbc9825e7	-0.01857276
23	0xbc93c2ce	-0.018037226
24	0x3ce2e08b	0.027694961
25	0x3a3f425c	0.000729596
26	0xbd9b73b6	-0.075904295
27	0x3dd6770b	0.104719244
28	0x3d8cd16d	0.06875882
29	0xbcbfc7f3	-0.023410773
30	0xbd5021c8	-0.050813466
31	0xbd35693a	-0.044289805
32	0x3dbbce01	0.091701515
33	0x3dcd2582	0.1001692
34	0xbd07456a	-0.033025183
35	0x3db326c5	0.08747629
36	0xbda52b69	-0.080649205
37	0xbcdc0f86	-0.02686287
38	0x3df1c6e0	0.118055105
39	0x3c1cdcac	0.009574097
40	0x3d9fd443	0.078041576
41	0xbc78c1d5	-0.015182932
42	0xbd7f0bac	-0.06226699
43	0x3d488461	0.04895437
44	0xbdc619e2	-0.096729055
45	0x3cb8e0fe	0.022568222
46	0x3c1dbccf	0.009627535
47	0xbc96f6f6	-0.018428307
48	0x3a2b8e15	0.0006544304
49	0x3df06a6a	0.11739047
50	0xbd8f776f	-0.07005202
51	0xbd082706	-0.03324034
52	0x3bf241d1	0.0073931
53	0x3df02895	0.117264904
54	0xbd6faf12	-0.05851657
55	0x3de49cca	0.11162718
56	0x3d67c484	0.056583896
57	0x3d73a46e	0.059482984
58	0xbd2d47f8	-0.042304963
59	0x3d1a78f8	0.03771302
60	0xbd859d97	-0.065241985
61	0x3d47e98a	0.048806705
62	0x3d774a59	0.060373638
63	0x3d9a12da	0.07523127
64	0x3de144a6	0.10999422
65	0x3c45d6bc	0.012075122
66	0x3db4d365	0.08829383
67	0xbdbba001	-0.09161378
68	0xbd993afe	-0.07481955
69	0xbde1b9a0	-0.11021733
70	0x3dacdafe	0.08440207
71	0x3c17629a	0.009239817
72	0xbde516e5	-0.111860074
73	0xbd2cec51	-0.042217556
74	0xbda63349	-0.081152506
75	0xbcf6a9b7	-0.030110223
76	0x3d96d626	0.07365064
77	0x3da1fc8e	0.07909499
78	0x3d650a5c	0.055918083
79	0xbdd733e7	-0.105079465
80	0x3dd3b5c3	0.10337403
81	0x3c1da098	0.009620808
82	0xbde0d782	-0.10978605
83	0xbd7efc90	-0.06225258
84	0xbdd94599	-0.10608978
85	0x3d1dc41c	0.038517103
86	0x3d8fee84	0.07027915
87	0x3d82958f	0.06376182
88	0x3def2d91	0.11678613
89	0x3d76320b	0.06010632
90	0x3d67e858	0.056618065
91	0xbd52ed05	-0.05149557
92	0xbdbb6368	-0.091498196
93	0xbd8a3c88	-0.06749827
94	0xbda78f85	-0.08181671
95	0xbcf63da5	-0.030058691
96	0x3ddca110	0.10772908
97	0x3d2ac728	0.041693836
98	0xbd5a7d6e	-0.053342275
99	0x3d875554	0.06608072
100	0x3c2d00d8	0.010559283
101	0x3dee8b8b	0.116477095
102	0xbbf5b06b	-0.0074978373
103	0xbd7a8eb6	-0.061171256
104	0xbc8071f8	-0.015679345
105	0xbd178ced	-0.03699963
106	0x3ca29798	0.019847676
107	0xbccadc4e	-0.024763253
108	0x3d9fc259	0.07800741
109	0x3de4b3c6	0.111671016
110	0x3d34e9bf	0.04416823
111	0xbd9cca24	-0.07655743
112	0x3bf89ec2	0.007587285
113	0xbd479307	-0.0487242
114	0x3bc5c345	0.006035241
115	0xbdecc270	-0.115605235
116	0xbc7ae782	-0.015313985
117	0x3dd8f29b	0.10593148
118	0x3db2f54a	0.087381914
119	0x3ddef9a4	0.10887459
120	0xbd71bf3a	-0.05902026
121	0x3da5cd43	0.08095791
122	0x3b0e8eab	0.0021752517
123	0x3ddcf7e5	0.1078947
124	0x3d5a3975	0.05327745
125	0x3d583810	0.05278784
126	0xbc53c0a8	-0.012924351
127	0x3c91842d	0.017763222
128	0xbb42d0a0	-0.00297264
129	0x3bfa3298	0.007635426
130	0xbda671ab	-0.08127149
131	0x3ca2b3cf	0.01986113
132	0xbde34808	-0.11097723
133	0x3d7ca008	0.061676055
134	0xbc3239bd	-0.010878024
135	0x3dd70ca9	0.105004616
136	0x3dc9429d	0.098271586
137	0x3ce23a37	0.02761565
138	0xbddb0acb	-0.10695418
139	0x3d2cad4f	0.042157467
140	0x3ceab99d	0.02865296
141	0xbd34331a	-0.043994047
142	0xbd25f8ea	-0.040520586
143	0x3de10f90	0.109892964
144	0x3d7788cf	0.060433205
145	0xbdcf94d8	-0.101358116
146	0x3df8cd76	0.121485636
147	0xbd8040bb	-0.06262346
148	0xbcb7de96	-0.022445004
149	0x3b495a86	0.0030724122
150	0xbd8e44e4	-0.069467336
151	0x3da926d5	0.0825936
152	0xbce46594	-0.027880467
153	0xbc768329	-0.015045919
154	0x3d882fa8	0.06649715
155	0xbdf072b6	-0.117406294
156	0x3d9b93ab	0.07596525
157	0xbdd86816	-0.10566728
158	0xbdb47c58	-0.08812779
159	0x3c0a168d	0.008428228
160	0xbd747847	-0.059685018
161	0x3df1c311	0.11804784
162	0x3ca6fecd	0.02038517
163	0x3df34c96	0.11879842
164	0x3d222c1c	0.039592847
165	0x3d87b8ff	0.06627082
166	0x3de5d3a7	0.1122201
167	0xbd6796e9	-0.056540404
168	0xbdef463b	-0.11683317
169	0xbd84f42b	-0.06491884
170	0x3d9291c9	0.071567126
171	0xbd9e9f4e	-0.07745229
172	0x3de7a127	0.11310034
173	0x3d69fb51	0.05712444
174	0xbded0268	-0.115727246
175	0x3cfcab9c	0.030843548
176	0x3c9d6ffd	0.01921844
177	0x3dc80f76	0.09768574
178	0xbd977f79	-0.0739736
179	0x3cfc7503	0.030817514
180	0x3dadd067	0.08487015
181	0x3cb013fc	0.021493904
182	0x3ddb9964	0.10722616
183	0xbd6e3e6e	-0.058165006
184	0xbdbcea5b	-0.09224387
185	0xbd8f4dbb	-0.06997248
186	0x3dc584bb	0.09644457
187	0xbd8706f9	-0.06593127
188	0x3d094b48	0.03351906
189	0xbd75ba84	-0.05999233
190	0xbda5e5b8	-0.08100456
191	0xbd1a4acd	-0.03766899
192	0xbd9dbcb8	-0.07702011
193	0xbd59a67c	-0.053137287
194	0x3d6736e0	0.056448817
195	0x3d5b13a7	0.05348554
196	0xbd43255f	-0.04764306
197	0x3c9f76dd	0.019465858
198	0xbde88c60	-0.113548994
199	0x3d97b4ad	0.07407508
200	0xbd3ea2f4	-0.046542123
201	0x3dee22ff	0.11627769
202	0xbd3a063b	-0.045416098
203	0x3dcfff22	0.101560846
204	0xbcb1ddec	-0.021712266
205	0xbdbec612	-0.09315123
206	0xbdd15215	-0.10220734
207	0xbda3f35c	-0.080054015
208	0xbd8e72ce	-0.06955491
209	0xbd1c5723	-0.038169038
210	0x3cde14e7	0.027109576
211	0x3dac6d92	0.084193364
212	0xbd68731a	-0.056750394
213	0x3c9a946e	0.018869605
214	0x3df24c06	0.118309066
215	0xbdbb556f	-0.091471545
216	0x3b93032b	0.0044864616
217	0xbd12e759	-0.03586516
218	0xbd12878d	-0.035773803
219	0xbd92a576	-0.071604654
220	0xbd603d7e	-0.054746144
221	0x3d321fbc	0.043487296
222	0xbd492fd3	-0.049117874
223	0x3c9a2345	0.018815646
224	0x3d25fb8b	0.040523093
225	0x3ca052b7	0.019570692
226	0x3d93d509	0.072183676
227	0xbdec4baf	-0.11537873
228	0xbdf20e93	-0.11819186
229	0x3d1fe617	0.03903779
230	0xbd30375f	-0.043021556
231	0xbdaf7855	-0.085678734
232	0xbd6f0965	-0.05835857
233	0xbcae8ab4	-0.021306373
234	0xbd9f6527	-0.07782965
235	0x3d0fb70b	0.035086673
236	0x3de918f9	0.11381716
237	0xbd700365	-0.058596987
238	0x3ddedfbc	0.10882518
239	0x3df249a2	0.118304506
240	0x3d5cf38d	0.053943206
241	0xb9e48ea4	-0.00043593824
242	0x3cda709f	0.02666503
243	0xbcd3ad04	-0.025839336
244	0x3df8abcd	0.121421434
245	0x3cca579b	0.024699977
246	0x3d7b02c8	0.06128195
247	0xbca44435	-0.020052055
248	0xbcc21364	-0.023690887
249	0x3d41758f	0.047231253
250	0x3b9071b3	0.0044080853
251	0x3d0e113c	0.034684405
252	0x3c6546f2	0.013993965
253	0x3d92f5f9	0.07175822
254	0xbd247ef3	-0.04016013
255	0x3ce0469e	0.027377423

lstm.bias_ih_l0 f4 [256]
0	0xbd944279	-0.07239241
1	0x38a4fcdb	7.8672274e-05
2	0x3df71d4c	0.12066135
3	0x3da36fff	0.07980346
4	0xbd550793	-0.052009176
5	0xbdfaba0d	-0.122425176
6	0x3c39b4f0	0.011334643
7	0xbd4e164a	-0.050314225
8	0xbbcb6df6	-0.0062081767
9	0xbcd12ab8	-0.025533065
10	0x3cab2a61	0.020894231
11	0x3cbb6f9a	0.022880364
12	0x3dba550a	0.09098251
13	0x3d96c895	0.07362477
14	0xbd6bbec6	-0.057554983
15	0xbc3e7a1b	-0.011625792
16	0xbd1f97b6	-0.038963042
17	0x3d306f18	0.043074697
18	0xbc8462a8	-0.016160324
19	0x3cf3ff3d	0.029784793
20	0x3dfc37b6	0.123153135
21	0x3c5ebea8	0.013595261
22	0x3dfa0511	0.122079976
23	0x3c27b7ea	0.01023672
24	0x3d88a713	0.06672492
25	0xbdc743cc	-0.09729728
26	0x3c8c6703	0.017138964
27	0xbdc3f0a4	-0.09567383
28	0x3d93033a	0.0717835
29	0x3dc5a6bd	0.096509434
30	0xbdf7af3a	-0.12093969
31	0x3dead176	0.11465733
32	0x3d8727ec	0.06599411
33	0x3cde0541	0.027102115
34	0xbd9ebf52	-0.07751335
35	0x3d91227e	0.07086657
36	0x3d91ea53	0.07124772
37	0xbcf4bb0e	-0.02987435
38	0xbda355c1	-0.07975341
39	0xbdee7000	-0.11642456
40	0xbddff872	-0.10936059
41	0xbd85c988	-0.0653258
42	0x3ddb22c0	0.106999874
43	0x3daab65f	0.08335566
44	0xbda7ba96	-0.08189885
45	0x3daaaaff	0.08333396
46	0xbd80ae0a	-0.06283195
47	0xbda6b090	-0.081391454
48	0xbdb50a3f	-0.08839845
49	0xbb88e947	-0.0041781995
50	0xbd941c6c	-0.072319835
51	0x3d9908a4	0.07472351
52	0xbdcc2979	-0.09968848
53	0xbdc5f608	-0.09666067
54	0x3dc75dd8	0.09734696
55	0x3dd09b1a	0.10185833
56	0xbd17a02e	-0.037017994
57	0x3d93f219	0.07223911
58	0xbd2115a3	-0.039327275
59	0xbdce0664	-0.10059813
60	0xbcb0c1ca	-0.02157678
61	0xbde1a3df	-0.11017584
62	0xbdaa12f6	-0.08304398
63	0xbd2037d3	-0.039115738
64	0xbd876b2f	-0.066122405
65	0x3c958520	0.018251956
66	0x3d840444	0.06446126
67	0xbce31939	-0.027721988
68	0xbdbe8815	-0.09303299
69	0x3df57c64	0.11986616
70	0xbd7c5cf4	-0.061612085
71	0xbd01e0e5	-0.031708617
72	0xbd87eea5	-0.06637315
73	0xbdb88fb2	-0.09011783
74	0x3dea088b	0.11427411
75	0xbde1ba82	-0.11021902
76	0xbcc679a1	-0.024227919
77	0x3d9e95b0	0.077433944
78	0x3cdca591	0.026934417
79	0x3d5c2fea	0.053756632
80	0xbdf034d5	-0.11728827
81	0xbdc03b4a	-0.093863085
82	0xbda726ff	-0.08161735
83	0xbde21649	-0.11039407
84	0x3c91cf5a	0.017799068
85	0x3d92f363	0.071753286
86	0xbdc73767	-0.09727364
87	0x3d56fdd8	0.052488178
88	0x3be8cc3b	0.0071044243
89	0x3c97ae0c	0.01851561
90	0x3bd27c66	0.006423521
91	0xbdfa8c70	-0.122338176
92	0xbdfe3036	-0.12411539
93	0x3dbcc469	0.0921715
94	0x3d3a9c90	0.045559466
95	0x3d1e0814	0.038581923
96	0x3da30f54	0.07961908
97	0xbd6f897f	-0.058480736
98	0xbd53026d	-0.051515985
99	0xbde7ee7a	-0.11324783
100	0xbc83b1cd	-0.016075993
101	0xbd490ef4	-0.049086526
102	0xbdf2c689	-0.11854274
103	0xbcd2c3d8	-0.025728151
104	0x3db87f1e	0.09008621
105	0x3d41347d	0.047169197
106	0x3cb8129f	0.022469817
107	0x3d4c3446	0.04985454
108	0xbda33855	-0.07969729
109	0x3db9ce43	0.090725444
110	0x3dfa26f6	0.122144625
111	0xbb7ff986	-0.003905864
112	0xbd51cc68	-0.051220328
113	0xbdab0f38	-0.08352512
114	0xbd0ee663	-0.034887683
115	0x3d923750	0.07139456
116	0x3d0e38e6	0.03472223
117	0xbdc5710b	-0.09640702
118	0x3d2c4da9	0.04206625
119	0xbdb52abb	-0.08846041
120	0x3d6e13a1	0.05812419
121	0x3d871102	0.06595041
122	0xbcb325a3	-0.021868533
123	0x3d0f7739	0.03502581
124	0xbdc08919	-0.09401149
125	0x3d1d5015	0.03840645
126	0xbd6078d7	-0.05480274
127	0xbdcf79e9	-0.101306744
128	0x3dd76934	0.10518113
129	0x3bc57fc3	0.0060271933
130	0x3cf55531	0.029947849
131	0x3dd703a3	0.104987405
132	0xbde95b93	-0.113944195
133	0x3df29507	0.11844831
134	0xbdaddff7	-0.084899835
135	0xbc82f342	-0.015985135
136	0x3d675cea	0.056485094
137	0x3dafe6fd	0.085889794
138	0xbd14fb84	-0.036372676
139	0x3ced5248	0.028969899
140	0xbc404ea3	-0.011737498
141	0x3c222b62	0.009898039
142	0x3dc46b51	0.095907815
143	0xbde2a71f	-0.11067032
144	0xbdff5813	-0.12467971
145	0x3d19f108	0.03758338
146	0x3d06fd6b	0.032956522
147	0x3dacca00	0.08436966
148	0xbddc4810	-0.10755932
149	0x3dfb88e4	0.12281969
150	0x3d8466d8	0.064649284
151	0xbd4b4026	-0.049621724
152	0x3cbf5d98	0.023360059
153	0xbdfaa0d7	-0.12237709
154	0x3d10efd7	0.03538498
155	0xbdc3347e	-0.095314965
156	0xbc7f90b9	-0.015598469
157	0xbbe3eafa	-0.0069555016
158	0xbd27ea0e	-0.040994696
159	0x3d8b2013	0.06793227
160	0xbe004003	-0.12524419
161	0x3d050c21	0.03248227
162	0x3dc992fc	0.09842488
163	0xbdc6640d	-0.09687052
164	0xbc805f5d	-0.015670473
165	0xbdef6c6c	-0.11690602
166	0xbdbfbfd0	-0.09362757
167	0xbb84bb4c	-0.004050648
168	0x3d29d208	0.041460067
169	0xbaae53c2	-0.0013300108
170	0x3c2ecaa6	0.010668432
171	0xbd9d0444	-0.07666829
172	0xbddc0853	-0.10743775
173	0x3d544e57	0.051832523
174	0xbceea637	-0.029131992
175	0x3d72a048	0.059234887
176	0xbb8bc29d	-0.004265143
177	0x3da1bc91	0.07897294
178	0x3ba30576	0.004975016
179	0x3d560c50	0.052257836
180	0x3dabeccd	0.083947755
181	0xbdd31800	-0.10307312
182	0xbdee795f	-0.116442434
183	0xbcf2e010	-0.029647857
184	0xbd8e6fe6	-0.06954937
185	0x3d881faf	0.06646668
186	0xbd26b524	-0.040700093
187	0x3d62f645	0.055410642
188	0xbdd24f2f	-0.10269009
189	0x3d730fb1	0.059341136
190	0x3d8636e3	0.065534376
191	0x3d46cc52	0.0485347
192	0x3cb9aa7b	0.0226643
193	0xbcb8997a	-0.02253412
194	0x3defce95	0.11709324
195	0xbde3a769	-0.11115915
196	0x3c63ceb0	0.013904259
197	0xbd0d3123	-0.03447069
198	0x3d0da6fd	0.03458308
199	0x3de0016d	0.10937772
200	0x3cb830c5	0.022484193
201	0x3dc068e4	0.09395006
202	0xbde8c59b	-0.11365815
203	0x3d4f6415	0.050632555
204	0xbdf160db	-0.11786052
205	0x3d93591a	0.07194729
206	0x3dd9e1a6	0.10638742
207	0xbdba2787	-0.090895705
208	0xbd7fb44c	-0.062427804
209	0x3c5c1206	0.0134320315
210	0x3d865b7a	0.065604165
211	0xbbb2ddac	-0.0054585543
212	0x3d910a7b	0.07082077
213	0xbd84f275	-0.064915575
214	0x3bf1f032	0.00738337
215	0x3cef0769	0.029178338
216	0xbde0dc32	-0.10979499
217	0xbdafd8dc	-0.085862845
218	0xbdd79afe	-0.10527609
219	0xbda0211b	-0.07818814
220	0xbd6e1601	-0.058126453
221	0xbc10ec16	-0.00884535
222	0x3d1f9da8	0.038968712
223	0xbd70ac7d	-0.058758248
224	0x3d0ddc2f	0.03463381
225	0xbd734e1b	-0.05940066
226	0xbd51d0c1	-0.051224474
227	0xbd8f7e3b	-0.070064984
228	0x3dc3e080	0.09564304
229	0x3b408701	0.0029377344
230	0xbdc3328a	-0.09531124
231	0x3d26fc9a	0.040768243
232	0xbc109355	-0.008824189
233	0x3d82b657	0.06382435
234	0x3d8efa1e	0.069813
235	0xbdd2c6b1	-0.10291804
236	0x3d6c9491	0.05775887
237	0x3dceb41b	0.10092946
238	0xbbdfea25	-0.006833332
239	0xbdba5de3	-0.09099939
240	0x3d4767dc	0.048683032
241	0x3ded8fab	0.11599668
242	0xbd37f9ac	-0.04491584
243	0x3dccbb1f	0.09996628
244	0x3d168e1d	0.036756624
245	0x3dae8466	0.08521347
246	0xbd034a4b	-0.032053273
247	0x3d47965f	0.04872739
248	0xbdfa8d3a	-0.12233968
249	0x3dc9e6c0	0.09858465
250	0x3e0162ce	0.12635347
251	0xbd951d46	-0.07280974
252	0xbd6c3cba	-0.0576751
253	0x3d38304e	0.044967942
254	0xbcbdfd46	-0.02319206
255	0x3d70a9fb	0.058755856

lstm.bias_hh_l0 f4 [256]
0	0xbd9597e9	-0.07304365
1	0xbdad15b4	-0.08451405
2	0xbcbfa0ac	-0.023392044
3	0x3dcf020f	0.101078145
4	0x3d16e525	0.036839623
5	0x3dd924a5	0.106026925
6	0x3d6bc44a	0.057560243
7	0x3cc9730b	0.02459099
8	0xbd2b9d75	-0.04189821
9	0x3ddfc027	0.10925322
10	0x3da50975	0.080584444
11	0xbd01b7cd	-0.031669427
12	0x3c80cafa	0.015721787
13	0xbce84b35	-0.028356174
14	0x3cb2a369	0.021806436
15	0x3c6e3685	0.014539366
16	0xbccf2eef	-0.025290934
17	0x3d2205e8	0.039556414
18	0xbce1d2f9	-0.02756642
19	0xbd7e43bb	-0.06207631
20	0x3ddb4ae0	0.10707641
21	0x3cf891ba	0.030342925
22	0x3da23c65	0.079216756
23	0x3d6cf89d	0.057854284
24	0x3dce75af	0.1008104
25	0x3ddbda34	0.10734978
26	0x3d0af639	0.033926222
27	0x3cc945a7	0.024569346
28	0xbdf87a3c	-0.12132689
29	0x3da8a75f	0.082350485
30	0xbd8e544a	-0.069496706
31	0xbd1987c6	-0.037483
32	0x3db0256e	0.08600889
33	0x3dade97a	0.08491798
34	0xbe0167e4	-0.12637287
35	0xbd9829e6	-0.074298665
36	0xbdab1cfb	-0.08355137
37	0x3d83105f	0.06399607
38	0x3d658453	0.056034397
39	0xbcef22ff	-0.029191492
40	0x3d1b8dd0	0.03797704
41	0x3d123ea6	0.035704277
42	0xbd4f28a2	-0.05057586
43	0xbda2f70f	-0.07957279
44	0x3d2b1575	0.04176851
45	0xbd308bc2	-0.043102033
46	0xbde49f14	-0.11163154
47	0xbd4ccd9c	-0.050000772
48	0x3dc0be31	0.09411276
49	0xbdba3ed9	-0.090940185
50	0xbd8b3196	-0.06796567
51	0x3ce9cd1d	0.028540188
52	0xbd8ed271	-0.06973732
53	0x3de16c1e	0.1100695
54	0x3ae10a6b	0.0017169242
55	0x3d9a1a70	0.07524574
56	0xba883922	-0.0010393003
57	0xbbf4256c	-0.00745075
58	0x3c84a0bd	0.016189927
59	0x3d07ea74	0.033182576
60	0x3adc4d4b	0.0016807703
61	0xbd93ac4f	-0.072106
62	0xbc8d70f2	-0.01726577
63	0x3c17b086	0.009258395
64	0x3d6fabb3	0.058513355
65	0xbb625de8	-0.0034540836
66	0x3d955c2e	0.072929725
67	0xbd4830f3	-0.048874807
68	0x3d3838f2	0.044976182
69	0x3cb112ef	0.021615474
70	0xbda49fdb	-0.080383025
71	0x3c5f6038	0.01363378
72	0x3df70b19	0.120626636
73	0xbdb9be2a	-0.09069474
74	0x3e00c7c1	0.125762
75	0xbe00c1b2	-0.12573889
76	0xbd5f7856	-0.05455812
77	0x3db846b0	0.089978576
78	0x3d425c9d	0.047451604
79	0x3be23957	0.006903808
80	0x3dc19933	0.094530486
81	0x3dba32c4	0.09091714
82	0xbce0858e	-0.027407434
83	0xbbf86fd8	-0.007581692
84	0x3dbb5627	0.09147292
85	0xbdf9be4d	-0.121945
86	0x3d562257	0.052278843
87	0xbd7dde19	-0.061979387
88	0x3d36a3ed	0.044589926
89	0xbd9f14a3	-0.07767608
90	0xbddeaafa	-0.10872455
91	0x3d8e5cac	0.069512695
92	0x3dbc5ffc	0.09197995
93	0xbdc8adb9	-0.0979876
94	0xbde0dade	-0.109792456
95	0xbdbfd3eb	-0.09366592
96	0xbdbfd56e	-0.0936688
97	0x3c983af6	0.018582802
98	0xbe006dda	-0.12541905
99	0xbd6695d2	-0.056295224
100	0xbc827546	-0.015925061
101	0x3de70cac	0.11281714
102	0xbde1235d	-0.10993073
103	0xbda6e1bd	-0.08148525
104	0xbdbef80c	-0.09324655
105	0xbd0728b7	-0.032997813
106	0xbb9554c3	-0.0045572235
107	0xbd92ee85	-0.071744
108	0xbde6c7fb	-0.11268612
109	0x3cfefd5d	0.031126672
110	0x3d8fbc64	0.070183545
111	0x3d3507c3	0.044196855
112	0x3d81a1dc	0.063297
113	0xbdf7399a	-0.120715335
114	0xbcadb2eb	-0.021203479
115	0xbc138f63	-0.009006354
116	0x3dd012e4	0.10159853
117	0x3d47f2de	0.0488156
118	0xbddbf3cf	-0.10739862
119	0xbcbcdc29	-0.0230542
120	0x3db65ba9	0.089042015
121	0x3dfb91d0	0.12283671
122	0xbddd4069	-0.10803301
123	0xbddae7cd	-0.10688744
124	0x3dd576bf	0.1042304
125	0x3ddc57f5	0.10758964
126	0x3cedb2a1	0.029015841
127	0xbd5b72b1	-0.053576175
128	0x3bd16708	0.006390456
129	0xbd93c140	-0.07214594
130	0x3d4ad359	0.049517963
131	0xbdd2c45f	-0.10291361
132	0x3c7341dc	0.014847245
133	0xbdfbbf5d	-0.12292359
134	0xbd719ddc	-0.058988437
135	0x3ccd50fe	0.025063034
136	0x3bd46d78	0.0064827763
137	0x3d93ce07	0.07217031
138	0x3db2fbaa	0.08739407
139	0xbd8099bb	-0.06279322
140	0xbdbffdb6	-0.093745634
141	0x3c091712	0.008367317
142	0xbdeb7763	-0.114973806
143	0x3d8c56e3	0.0685251
144	0x3da655c3	0.081218265
145	0xbca65e50	-0.020308644
146	0x3dc3df0c	0.09564027
147	0x3cbde4a4	0.023180313
148	0x3c8c3dee	0.017119374
149	0xbda01134	-0.07815781
150	0x3dcb31ea	0.0992163
151	0xbdd27023	-0.10275295
152	0x3d3027d9	0.04300675
153	0xbd83a2c0	-0.064275265
154	0xbb7c8d91	-0.0038536529
155	0xbd8952e0	-0.0670526
156	0xbdfbda16	-0.12297456
157	0x3d4050a9	0.046951924
158	0xbd96fdcf	-0.07372629
159	0xbbbe4b8c	-0.0058073457
160	0x3d852a37	0.065021925
161	0x3d190abc	0.037363753
162	0xbce6b840	-0.02816403
163	0xbdfda18f	-0.123843305
164	0x3d476cc6	0.04868772
165	0xbd5b8643	-0.05359484
166	0xbdd4570a	-0.10368164
167	0xbc9ba328	-0.018998697
168	0xbdef8830	-0.116958976
169	0xbcab6a23	-0.020924633
170	0x3df5ee53	0.12008347
171	0x3c02ab43	0.007975402
172	0xbdd65e69	-0.10467226
173	0xbb29dc20	-0.0025918558
174	0xbde82892	-0.11335863
175	0x3dc4b989	0.096057005
176	0x3df4553b	0.11930319
177	0xbdd29725	-0.10282735
178	0xbd84f739	-0.064924665
179	0x3d850dce	0.06496774
180	0x3d9a937d	0.075476624
181	0x3d5fd64c	0.05464773
182	0xbc87e9ce	-0.016590979
183	0xbd51fc03	-0.051265728
184	0xbd4022c0	-0.04690814
185	0xbdd6f151	-0.10495246
186	0x3d530238	0.051515788
187	0xbd81b045	-0.06332449
188	0xbde91997	-0.11381834
189	0x3d8e5e23	0.06951549
190	0x3ce7e40e	0.028306987
191	0x3b805786	0.0039166836
192	0xbdfe4be8	-0.12416822
193	0x3df85e13	0.12127318
194	0xbbb097db	-0.0053891963
195	0xbdcf4c9f	-0.10122036
196	0x3bc61e5c	0.0060460996
197	0x3d737a41	0.059442762
198	0x3bf8f560	0.0075976104
199	0xbdebbf8b	-0.11511143
200	0xbd3a799b	-0.04552613
201	0xbca8f20e	-0.020623233
202	0x3d9e9fc1	0.077453144
203	0xbd77b267	-0.060472872
204	0x3c8aa3f2	0.016923878
205	0x3d94f5ea	0.07273467
206	0x3dec4e00	0.11538315
207	0xbdd0b439	-0.10190625
208	0x3dc9c7d5	0.09852568
209	0xbc2cd7ba	-0.01054948
210	0xbd1401d1	-0.036134545
211	0xbda9549d	-0.08268092
212	0xbdbc80c1	-0.09204245
213	0x3d535d03	0.051602375
214	0xbc1d66d0	-0.009607032
215	0x3dcfa811	0.10139478
216	0x3c5282fb	0.012848611
217	0xbb942b53	-0.004521766
218	0xbddfa686	-0.10920434
219	0xbbafd91b	-0.005366457
220	0xbc94e230	-0.01817426
221	0x3dbeb60b	0.09312066
222	0x3d937949	0.07200868
223	0xbdfc4409	-0.12317664
224	0x3da4a93d	0.08040092
225	0x3cec6446	0.028856408
226	0xbdd543e8	-0.10413343
227	0xbda37e63	-0.07983091
228	0x3d2c7deb	0.042112272
229	0x3d878fff	0.06619262
230	0xbd51c5df	-0.051214095
231	0xbd846754	-0.06465021
232	0xbdbeffa6	-0.09326105
233	0x3da4ecc5	0.08052973
234	0x3d93a44a	0.0720907
235	0x3dc046e3	0.093885206
236	0x3ddaca7a	0.106831506
237	0x3df6dfcf	0.12054407
238	0xbcd6a749	-0.026202815
239	0xbd117bbf	-0.035518404
240	0xbd9c9e35	-0.07647363
241	0xbc84e060	-0.016220272
242	0xbdf61467	-0.1201561
243	0x3dbd08fd	0.0923023
244	0xbcffdb5e	-0.031232532
245	0xbbe58e72	-0.007005506
246	0x3c0c3c65	0.008559321
247	0x3dfb9f6b	0.12286266
248	0xbc5c716b	-0.013454775
249	0x3df022e6	0.11725406
250	0x3d85bdb0	0.06530321
251	0x3d37079a	0.044684984
252	0xbc731411	-0.014836327
253	0xbd08871e	-0.033331983
254	0xbd132dd6	-0.035932384
255	0x3de50c21	0.11183954
