series_temporales_maxi/trabajo_final/src/best_model_params.pth (torch, 627338 bytes, 20 tensors)

cnn.0.weight f4 [16, 1, 3, 3]
00000000: 84b8 833e 42d2 99be 7609 be3d 431a adbe
00000010: 6984 e73d 67c2 873e fc43 a73e 6929 71be
00000020: 5017 96be 4e09 98be 33ad 3cbe 91b1 97bd
00000030: f5ec be3d 401a 4ebe 77f5 aa3e 506b 383e
00000040: 47f9 173d 8ff2 05be 0e96 56be c748 82be
00000050: 1dff f53d d23f 923e 890e b93d df5a 97bd
00000060: fbf9 db3c a858 16be fd2b 41bd 3fd9 b83c
00000070: c12c 59be ab1b 333e a2c0 a23e e5df a33e
00000080: d7d7 9a3e 957a babd ae9c 143d 9178 a33e
00000090: 57ca 0e3e 9cb0 653e 67f1 653d 1de4 af3d
000000a0: a5c7 133e d1aa a5be dba3 9fbe acd5 6ebe
000000b0: 329c 9b3d a5b9 19bd 1ccc 0f3e 9684 06bc
000000c0: 0970 7ebe 2e29 113d 251f fd3d ab68 413b
000000d0: f388 68be 677c 4abe 264a a43d 17e7 0fbe
000000e0: ab82 613d af6d 9a3e a667 55bc 1c1b 37be
000000f0: 63a7 2ebe 01c4 b73c d455 c83d 372c 673c
00000100: e082 8fbd 3c9c 523e 3575 0b3e 706d 863e
00000110: b5a1 06be 5e85 f93d 03de 8d3e b52d 49be
00000120: 6476 563e c593 0cbc 13f7 61bb d481 8e3d
00000130: 1c42 62bb c80c 5fbd 36c7 853e 4425 9f3e
00000140: 9f28 55be 8e5a a93e 72e7 adbd d577 a33d
00000150: a3c0 a53e d8f8 65be 6878 843e 5e8a 513e
00000160: 43de 283e 57d9 2f3e ae4d ab3e 76a7 953e
00000170: f496 35be 4b50 9bbe a50c 903e 0ec3 47bd
00000180: 7061 aabe 4dc3 2b3c 8192 87be a037 9b3e
00000190: 68e0 0cbe 04e9 923e 9f40 803e 37d0 413e
000001a0: 8170 85bd bfaa f7bd 4a42 4bbe ab82 873e
000001b0: f460 89bc c9ba 9abd 5206 d93d 9c3b 633e
000001c0: 47f6 a33e ba4e 933e c41a 6f3e a8d9 21be
000001d0: 9b6f e83d 69cb d6bd 1437 2e3e 2106 d13d
000001e0: 6db3 373d cb60 8f3e d8f6 963e bd69 9fbe
000001f0: c523 213d bd07 b33d 86b5 5abe 7890 8a3d
00000200: c2da 9b3d bfec 563e 21fb 05be 50cf 023e
00000210: c783 433b 7516 9d3e 7984 2cbd 5b12 29be
00000220: b679 a2bd f158 39be 4af9 89be c42e ae3e
00000230: c64b 723e 20d6 123c bf61 62bd 75a6 b1bc
0.25726712 -0.30043226 0.09279148 -0.338091 0.11304552 0.26515505 0.32669055 -0.23550953
-0.2931466 -0.296946 -0.18425445 -0.07406915 0.0932254 -0.20127201 0.333904 0.18009686
0.037102964 -0.1308081 -0.20955679 -0.2544615 0.120115496 0.28564316 0.090359755 -0.07390379
0.026852598 -0.14682257 -0.04716109 0.022564529 -0.21208479 0.17491023 0.31787592 0.32006755
0.30242798 -0.09105412 0.036282234 0.31927922 0.13944374 0.22430652 0.056138422 0.08588431
0.14431627 -0.32356885 -0.311797 -0.23323697 0.07598151 -0.03753056 0.14042705 -0.008210322
-0.24847426 0.035439663 0.12359456 0.002951185 -0.22708492 -0.19774018 0.08021955 -0.14052998
0.055056255 0.30161807 -0.0130252 -0.17881435 -0.1705604 0.02243233 0.097819954 0.014109663
-0.07007384 0.20567411 0.1361893 0.2625537 -0.13147624 0.12183641 0.27708444 -0.19646342
0.209436 -0.008580153 -0.0034479543 0.069583565 -0.0034524268 -0.05445555 0.26128548 0.3108312
-0.20816277 0.330769 -0.0849141 0.079818405 0.32373533 -0.22458208 0.25873113 0.20462939
0.16491036 0.17172752 0.33457702 0.29229325 -0.17733365 -0.30334696 0.28134647 -0.048770003
-0.33277464 0.010483575 -0.2647896 0.30315876 -0.13757479 0.28693402 0.25049302 0.18927084
-0.06515599 -0.12093114 -0.19849506 0.2646688 -0.016769864 -0.07555158 0.10596909 0.22190708
0.32023832 0.28771 0.23350054 -0.15805686 0.11349412 -0.10488016 0.17013198 0.10206247
0.044848848 0.28003535 0.29485202 -0.3113536 0.039340753 0.0874171 -0.21358308 0.067658365
0.07610084 0.20988749 -0.1308408 0.12774396 0.0029833184 0.30681196 -0.042118523 -0.16510908
-0.07933371 -0.18100335 -0.26948005 0.34020054 0.23661718 0.008962184 -0.055269 -0.021685818

cnn.0.bias f4 [16]
00000000: f52f 2cbe 6891 903c 0980 ac3e 5a69 723e
00000010: 8e0b 7e3e 84c5 45bd 61ae 773e c469 963e
00000020: 0c92 483d 8753 8a3e 298b 40be 1110 733e
00000030: 08cd 3a3d d541 473e 9d5c 883e a7f3 9e3e
-0.16815169 0.01764746 0.33691433 0.23673001 0.24809095 -0.04828407 0.24187614 0.29377568
0.048967406 0.2701685 -0.18803085 0.23736598 0.04560569 0.19458707 0.26633158 0.31045267

cnn.4.weight f4 [32, 16, 3, 3]
00000000: 80cf 1abb 8f11 8ebd a311 e8bc abfa 623b
00000010: fb4c c13c bb85 fc3c 03c6 013d f438 9bba
00000020: 7281 503d f8c6 833d 5b7b a3bd 64cd 023d
00000030: be44 5ebd 39ca 423d 3512 87ba 7ca1 8abd
00000040: 15f4 2abd 9618 78bd 52b5 c8bc 1aa8 893d
00000050: d1d9 88bd 7d37 91bd e25a 39bd e195 c1bc
00000060: d1a6 113c 4f62 853d 128e a2bc 18db 863c
00000070: 3779 ed3c f29e 93bd fc37 29bd 7faf 22bd
00000080: 8cc8 a6bd 24e9 a43d 4c2d 4abd e600 17bd
00000090: 2245 1bbd b727 e4bb 9a72 93bd 1bc7 84bc
000000a0: e6eb 76bd d5d1 95bd 3c26 1b3d e32a 46bd
000000b0: d511 a43d b0c4 973d c043 bc3b 90cc 2bbd
000000c0: 3ebd e8bc 20b0 6c3c 1e2b 923d 07f6 d03c
000000d0: b6d5 3f3d 9b34 843c 597e 0b3d f0fc 893d
000000e0: d8d8 a63d e640 80bc c1df 69bd 2b44 59bc
000000f0: 894a f4bc 0bf3 8ebd 30aa e73c 64bc ae3c
00000100: dd22 e43c 28a3 56bd 506d 6e3d c197 cb3c
00000110: 0c32 97bd 9b71 4ebd 8060 0ebd 1855 a63d
00000120: 55c6 d7bb 248b 143c 8303 fdbc a497 fbbb
00000130: 02d1 f9bc d873 87bd b1b9 f2bc 5d5c 0e3d
00000140: 6cf3 35bc 8ea5 5dbd 0c49 17bd 0554 0c3d
00000150: e7b8 a0bd 51fa 013d d73a 4cbd 2d73 ac3d
00000160: 3d87 973d c1b1 503a 34f1 b1bd 0166 8e3d
00000170: 02e3 8d3d 10a8 843d ace7 95bd 0ba3 94bd
00000180: 5160 253d 77f4 b73d cbce bf3c 1ae8 16bc
00000190: 15e2 3bbd 6cf1 55bd 0932 df3c f3cf 2c3c
000001a0: 1777 9cbd 1143 1bbd 6f31 0d3d 8efb 693c
000001b0: 00fa 3b3d c44a e23b fd5b 94bc 242d 56bd
000001c0: a542 803d 2874 753d 5bac ccbc e760 163c
000001d0: 2704 003d c0e3 8a3d 4b86 85bd 1233 9a3d
000001e0: c8d1 843d b5d0 bcbc b446 44bd 21c0 fa3c
000001f0: b99e 85bd 1e72 7c3d 9c4b 7fbd c136 993b
00000200: dd9c 943d 5c34 b1bb 846a 3b3d 5080 c1bc
00000210: 9979 a23d 664c fcbc 8849 86ba 22fe ef3c
00000220: bc82 863d c349 b13b 9920 823c 322f 0cbb
00000230: 0e90 6dbd 5028 7fbc 7689 edbc 110d 523d
00000240: 7acd 013d a351 8fbd 00eb 0cbd d818 953d
00000250: f644 fe3c e033 45bd f7b7 c33c 9066 313d
00000260: d7a5 91bd a4e5 6abc 9954 f6bc 253e 533d
00000270: a1a8 b3bd 4249 1ebd c389 a9bd 6b10 8f3d
00000280: ca89 12bd 3dee 3dbc 980e b83c d1f6 653d
00000290: 6cc5 38bd ae79 39bc 7d6a 9a3d e68c 61bd
000002a0: 31f2 8abd 72b7 5ebd f004 9ebd 4280 f23c
000002b0: 937c 753b bc02 a63d 0ee0 8abd 1a4c 8a3d
000002c0: ac54 7bbd 77d8 a13d e45c ebba ed69 a13d
000002d0: d648 193c e1e5 94bd 7d21 93bd 3b1a 52bd
000002e0: 1fbc 983d 2e69 eebc c0d9 203d eb40 5cbb
000002f0: a48d a53d 0001 043d ab00 82bd ab8e 76ba
00000300: bbc1 8fbd 06e6 303d fb95 a3bd 4aff 39bd
00000310: 9e5f ba3d dabd 2dbd 2530 f93c e521 9dbc
00000320: af7c 3d3d 482e 73bd 63c9 73bd 0992 393d
00000330: cc2f 57bd b9da b63b 5674 463d 80bc 003d
00000340: 0ea9 1dbd 9e3b 09bd ac85 6cbd 0796 74bd
00000350: 4e5c b53d 9c56 ac3d 58d6 8abc 4522 313d
00000360: e509 a03d ffc8 49bd a52c 64bd 60bd 89bc
00000370: 3ad1 93bd dfe4 1f3d 4f86 5c3d 8cd6 8e3d
00000380: 0d6f 693d f18b 85bd 1e67 633d 188d 76bd
00000390: 16c2 713b 3fab 34bd f6d3 e03c 9484 c0bc
000003a0: d41a 5fbb 4354 e1b9 232c 943d c413 ed3b
000003b0: 1618 35bd 3055 15bd f33b 853d c2dd 85bd
000003c0: 5966 47bd 0d4e d23d 0396 36bd 5644 983d
000003d0: bca8 aa3c b4a1 0fbd 9e55 9a3c 0d14 86bd
000003e0: 49a8 8f3c f61a 40bd 4467 1fbd 04cf 203d
000003f0: bda6 683d d9b7 45bd c10d 9bbc 879b 953c
-0.0023622215 -0.06936943 -0.028328722 0.0034634273 0.023596277 0.030825486 0.03168298 -0.0011842535
0.0509047 0.06434435 -0.079825126 0.031934157 -0.054264776 0.047556136 -0.0010305109 -0.06769082
-0.04173668 -0.060570322 -0.024500523 0.06721516 -0.0668217 -0.07090662 -0.04525269 -0.023631038
0.00888987 0.065128915 -0.019843135 0.016461894 0.028988464 -0.07208051 -0.041313156 -0.039718147
-0.0814372 0.080522805 -0.049359605 -0.03686609 -0.037907727 -0.006962742 -0.07199593 -0.016208222
-0.060283564 -0.07315413 0.03787826 -0.048380744 0.08011214 0.07410562 0.005745381 -0.041943133
-0.02841055 0.014446288 0.0713713 0.02550794 0.04683467 0.016138365 0.03405604 0.06737697
0.081468284 -0.015655946 -0.057098154 -0.013260881 -0.029820697 -0.069799505 0.028279394 0.021330066
0.027848655 -0.05240169 0.058209717 0.024852635 -0.073825926 -0.05040131 -0.03476 0.08121699
-0.0065849223 0.009066377 -0.030885464 -0.007677989 -0.03049517 -0.06613892 -0.02962956 0.034756053
-0.0111054 -0.054112963 -0.036934897 0.034259815 -0.07847767 0.03173286 -0.0498608 0.084204055
0.073988415 0.00079610577 -0.08688584 0.069530495 0.06928064 0.06477368 -0.073195785 -0.072576605
0.040375058 0.08982175 0.023414036 -0.009210611 -0.045869906 -0.05223219 0.027245538 0.010547626
-0.07639902 -0.037905756 0.03447097 0.014281167 0.045892715 0.0069058854 -0.01811027 -0.052289143
0.062627114 0.05992523 -0.02498453 0.009178377 0.03125396 0.06781721 -0.06519755 0.07529272
0.06485325 -0.023048738 -0.04791899 0.030609192 -0.065244146 0.061632268 -0.062327966 0.0046757166
0.07256482 -0.005407853 0.045755878 -0.023620754 0.07933349 -0.030798148 -0.0010245303 0.029295985
0.06567904 0.0054104044 0.015884684 -0.0021390435 -0.05799871 -0.015573576 -0.02899621 0.051281992
0.0316901 -0.06997993 -0.0344038 0.07280129 0.031038743 -0.048145175 0.023891432 0.0433107
-0.071117096 -0.014336977 -0.030069636 0.051572938 -0.08772398 -0.038644083 -0.08278229 0.06985553
-0.035775937 -0.011592445 0.022467896 0.056143586 -0.04511015 -0.011320515 0.07539842 -0.05506601
-0.067844756 -0.054374166 -0.077157855 0.029602174 0.0037458285 0.0810599 -0.06781016 0.067527965
-0.061360046 0.079026155 -0.0017956761 0.07881532 0.009355744 -0.072704084 -0.07184122 -0.051294547
0.07457756 -0.029102888 0.039270163 -0.003360803 0.080836564 0.032227516 -0.06347784 -0.00094054145
-0.07019373 0.043188117 -0.07987591 -0.04540948 0.09100269 -0.042417385 0.030418465 -0.019181201
0.046261486 -0.05937031 -0.05951823 0.045305286 -0.052535817 0.005580273 0.04845079 0.031429768
-0.0384913 -0.03350412 -0.057744667 -0.05971339 0.08855496 0.08414957 -0.01694791 0.043245573
0.07814387 -0.04926395 -0.05570664 -0.016813934 -0.07217641 0.039036628 0.053839024 0.06974515
0.056990672 -0.06520832 0.055518262 -0.06019315 0.0036889366 -0.044108626 0.02744482 -0.023500718
-0.003404309 -0.00042978124 0.07234981 0.0072350223 -0.044212423 -0.036458194 0.06505575 -0.065364376
-0.04868159 0.10268793 -0.044576656 0.07434909 0.020832412 -0.03506632 0.018839654 -0.06546793
0.0175363 -0.046900712 -0.03891684 0.039259925 0.05679964 -0.048271034 -0.018927457 0.018262638

cnn.4.bias f4 [32]
00000000: 6313 973d 1521 fb3c a182 773c 87da 9cbd
00000010: 4864 ec3b b25f 1c3d a631 343d 946c 1d3d
00000020: c9e0 a6bc 7235 fabb 8091 433c dc9f 2fbd
00000030: aff4 663b 7014 823d 74a2 9ebd 8cdc 7d3c
00000040: e1e4 1c3d 1ac1 4b3c 194f 17bc a620 ec3b
00000050: 7c3b af3d 4837 1bbd bfee 36bd 5e82 883d
00000060: 8a42 6dbc 3acb 5ebd 0c9d 953a 870c 97bd
00000070: 2d78 f33b 1a1a 393d fea7 f33c e527 a8bc
0.073767446 0.030655423 0.015106828 -0.07658868 0.007214103 0.0381772 0.04399266 0.038433626
-0.020370858 -0.0076357657 0.011936545 -0.042877063 0.0035241058 0.063515544 -0.07745829 0.015494477
0.038304213 0.012436176 -0.009235167 0.0072060404 0.085562676 -0.037894517 -0.04466128 0.066654906
-0.014481196 -0.05439303 0.0011414601 -0.07375436 0.0074300976 0.045190908 0.02974319 -0.020526836

cnn.9.weight f4 [10, 6400]
00000000: 88a1 f7bb e2f4 fcbb 7453 003c eadb e03a
00000010: 5473 abbb 2fba 163c 9972 82ba 3264 b03b
00000020: 38b2 89bb cf5c 0e3c 0435 bb3b cf80 333b
00000030: 2cb3 233b d9de 233c ad01 d2ba 27e3 9f3b
00000040: d382 343b 609e b939 916d b43b b38c 10bc
00000050: bb66 bd3a 24e3 be3b a2ef 1a3a f94f 5f3c
00000060: 6b34 f73b c7c9 9d3b dfb0 813b c7e2 653b
00000070: 6e3e af3b 1041 fb3b bc96 01bb 1ef6 19bc
00000080: 598e 043c 1387 573c b167 a73b f333 2e3c
00000090: 476c 0cbb 8f8c 0f3c ca11 33bc 789d df3a
000000a0: d75b 183c 13f4 40bb 2c3e e83b ee50 df3a
000000b0: 7801 0abc 42e6 20bb 9d5c bb3b e92b 4d3b
000000c0: e936 c43b 03b8 613c 249a 18bc 7d9d 0c3b
000000d0: 9ca2 b83b ece8 5a3c 47d6 c7bb a6b0 d33a
000000e0: b59e 843b 37d8 a63a 6955 253c f41e 533c
000000f0: bc0b 063c 4ce5 063b 1288 603a dcf8 26bc
00000100: 0cd1 c7bb 9b9a 4d3c 3047 6a3c f8c9 273c
00000110: ae2f 29bc 61f6 2f3c ff88 133c 46fb 2fbc
00000120: ba6b fb3a 99d1 3a3a 2441 71b9 c213 22bc
00000130: 2fba 03bc c06a 14bc e8c2 473c 349b 49bb
00000140: e53f cfbb 9740 d8bb 1f65 3d3c b95d 0e3c
00000150: 107c 343c 4c65 5a3c f2d7 d23b 0a9d e33b
00000160: f6c3 79bb fe17 d13a 296c 173c 65c0 013c
00000170: 6bf1 173c 2221 51bb f916 af3b 0f26 5d3c
00000180: 8c1f 33bc f4c7 4b3c c127 b8bb 4569 683b
00000190: 88fd f53a f416 a0bb 1b75 0fbb ddf8 80ba
000001a0: fc79 1cbc 1755 eebb 8a13 e2bb 02a4 e6bb
000001b0: 96b4 583c ad26 1cbc 5c1d 3d3c 8fe1 0d3c
000001c0: 9821 0e3b 34aa a83b d462 1c3b da7d 1dbc
000001d0: 7453 5b3b b461 37b9 9a01 04bb 6fab 253c
000001e0: 45a6 e23b 39ac 6c3c 4ee9 213c 0236 acbb
000001f0: 58f1 5f3b 0e23 acbb b31b a73b 7250 16bc
00000200: 3e8b 2e3c 0327 3c3c 29df 203c 8bb8 99bb
00000210: 4a3d 0b3c bb11 72bb f7bc 473c 89dc 16bc
00000220: 784f d6bb 2b12 47ba b5e1 3b3c 4b3e 32bb
00000230: b108 103b b6f9 1d3c d20c fbba 9fa4 383c
00000240: ca4d 7bbb 45ff 88bb 499d 7fbb 1b6f 243b
00000250: cdbb 4a3b 5584 26bc bb49 6abb c426 123c
00000260: a1ea bb3b 4276 bd3b d7af 25bb 24d7 1dbc
00000270: 18f2 a2b9 0243 103c 9887 acb9 514f eab7
00000280: a0fa b236 83ce ce3b 11ed 2ebb 2485 0abc
00000290: 4ee6 1f3c 5ebb 483c b970 313c 8aec e3bb
000002a0: 17b2 afba 7d29 443c 2369 0e3c d552 e13b
000002b0: 5a4f 913a 161e 9c3a ab65 bd3b 97be ae3b
000002c0: acc0 193c aa7f a7bb b65a 5f3c 34b7 6c3c
000002d0: 93f6 26bc 2b58 1bbc 9c22 693c ffb0 303c
000002e0: 49da 343c c244 363c 069f c9bb c1c2 2cbc
000002f0: a8d0 323c 96fa 2e3c 1a33 79bb 9f09 b53b
00000300: 8416 df3b bebe 523b 8e0e 8bbb d4af 07bc
00000310: eb2d ea3b 181f 2f3c bac8 163c 2088 64bc
00000320: 2bb7 913b 151a 5dbc 57f5 22bc b405 31bb
00000330: c3a9 c2bb 4e24 c93b b988 003b 7864 83bc
00000340: 5f34 9bbc 8a41 79bb c46b 6abc 30e8 943a
00000350: 8f86 a2bb 559a 63bc 590e cbbb 5165 59ba
00000360: 036e c4bb 0345 67bc 91dc 53bb a2d7 983b
00000370: f4b7 aaba a94b 15bc f29f e9bb 109f 69bb
00000380: 15e3 303b ab50 d83a d8b2 4ebc 6333 5abc
00000390: 3a88 b6bb 6f6d 1c3b f222 86bc ef72 5dbc
000003a0: 7471 8cbc c168 92bb 7d67 a43a 2483 50bc
000003b0: 45cb 15bc 6671 52bc 60f2 56bc be86 08bc
000003c0: 3cd7 6639 ed43 53bc 8821 743b 620c 2fbc
000003d0: 5d9c 3a3b 00b1 31bc d734 1bbb 3bb3 ae3b
000003e0: f4f6 863b 03a6 71bc ac8a 08bb 1276 36bc
000003f0: b6d3 b6bb 1f48 05bc 4287 53bc 063b 1dbc
-0.007557098 -0.007719622 0.007832397 0.0017155383 -0.005232254 0.009199663 -0.0009952366 0.005383038
-0.0042021535 0.0086891195 0.005713107 0.0027390008 0.002497862 0.0100018615 -0.0016022228 0.0048793736
0.0027543798 0.00035403948 0.0055062254 -0.008822608 0.0014450172 0.005825417 0.0005910342 0.013629907
0.0075440905 0.0048153135 0.0039578523 0.0035077797 0.0053480184 0.007667668 -0.0019773683 -0.009397058
0.008090579 0.013154763 0.0051087965 0.010632503 -0.0021426843 0.008761539 -0.010929534 0.0017060479
0.00929924 -0.0029442355 0.0070874896 0.0017037669 -0.008423202 -0.0024551307 0.0057178275 0.003130669
0.005987991 0.013776782 -0.009314094 0.0021456175 0.005634619 0.013361197 -0.006098542 0.0016150668
0.0040472397 0.0012729232 0.010091164 0.012885798 0.008181509 0.002058345 0.0008565198 -0.010191169
-0.0060979184 0.012549068 0.014299199 0.010241024 -0.010326309 0.010739894 0.00900483 -0.010741061
0.0019181885 0.00071265694 -0.00023007818 -0.009892406 -0.008039995 -0.009058654 0.012192465 -0.0030762674
-0.0063247555 -0.0065994966 0.011559754 0.008689337 0.011015907 0.013329815 0.006434434 0.0069462107
-0.0038111187 0.0015952585 0.009242096 0.007919406 0.009273867 -0.0031910618 0.0053433147 0.013497843
-0.010932814 0.012437809 -0.0056199734 0.0035463136 0.0018767575 -0.0048855487 -0.0021889869 -0.0009839792
-0.009550568 -0.007273327 -0.006899302 -0.007038594 0.013226649 -0.009530705 0.011542644 0.008659734
0.0021687504 0.005147243 0.0023862617 -0.009612525 0.003346649 -0.00017488637 -0.0020142556 0.010111674
0.0069167935 0.014445358 0.009882284 -0.0052554617 0.0034170952 -0.0052532023 0.0050997376 -0.009174453
0.010653315 0.0114839105 0.0098188305 -0.0046911887 0.008498499 -0.0036936838 0.012191049 -0.009207853
-0.006540235 -0.0007593955 0.011467387 -0.0027197774 0.0021977837 0.009642055 -0.0019153601 0.0112697175
-0.0038345926 -0.004180821 -0.0039003661 0.0025090638 0.0030934692 -0.010163386 -0.0035749513 0.008920375
0.005734757 0.0057819197 -0.002528181 -0.009633813 -0.00031079422 0.008805038 -0.00032907422 -2.7931908e-05
5.33399e-06 0.006311239 -0.0026691596 -0.008454595 0.009759499 0.012251703 0.010830098 -0.006955688
-0.0013404515 0.011972782 0.008692059 0.0068763294 0.0011086271 0.0011910822 0.005779942 0.0053327787
0.009384315 -0.0051116543 0.013632467 0.014447976 -0.010190624 -0.00948147 0.014229443 0.010784387
0.011038371 0.011124792 -0.0061529903 -0.01054448 0.010914005 0.0106798615 -0.0038024844 0.0055248286
0.006808104 0.0032157148 -0.0042436784 -0.008281667 0.007146587 0.010688566 0.00920313 -0.01394847
0.004446884 -0.013494988 -0.009946189 -0.0027011456 -0.0059406473 0.006138361 0.0019612743 -0.016039118
-0.01894587 -0.003803345 -0.01430792 0.0011360701 -0.0049598883 -0.013891776 -0.0061967787 -0.00082929904
-0.0059945597 -0.014115575 -0.0032327513 0.0046643773 -0.0013024793 -0.009112277 -0.0071296627 -0.0035647787
0.002699082 0.0016503533 -0.012615882 -0.013317916 -0.0055704387 0.0023868938 -0.016374085 -0.013516172
-0.017143942 -0.004468054 0.0012543049 -0.012726579 -0.0091427015 -0.012844419 -0.01311931 -0.008332906
0.0002201469 -0.012894613 0.0037251431 -0.010684105 0.0028474547 -0.010845423 -0.0023682618 0.0053314245
0.0041187946 -0.014749053 -0.0020834608 -0.011136549 -0.005579437 -0.008134871 -0.012910666 -0.009596592

cnn.9.bias f4 [10]
00000000: 0611 17bc 5a24 c139 734d ad39 65a7 f83b
00000010: f3be e8bb 9420 f53b 2f16 1bbc 87e3 26bc
00000020: 7a15 ba3b f5eb 433c
-0.009220367 0.00036838913 0.00033054836 0.0075883144 -0.007102841 0.0074806903 -0.009465738 -0.010186083
0.0056788297 0.011958112

lstm.weight_ih_l0 f4 [256, 10]
00000000: ef33 78bc 5b39 d93d 4bbc a6bd 6098 63bd
00000010: c583 01bd 6be3 a73d 9ae0 8c3d 8ca7 b63d
00000020: c869 21bc 4fce 63bd 29be f33d ecc0 6cbd
00000030: 79d0 3f3d 7c4e b73d b775 86bd d01d af3b
00000040: e395 5dbd e8e5 053e 46b9 603d 4826 3a3d
00000050: 2d10 58bb 3d10 7c3d b7d4 a43d 5b4a c0bd
00000060: cfa7 ecbd 36dc 7fbd 7715 c33d 9cd4 cfbd
00000070: 7df5 0ebc 5c73 e73d c368 48bd 1874 02be
00000080: 3839 543c e3dd 983a 6138 613d 7b23 c3bd
00000090: d5b7 c7bc 1b34 b83d 8511 b8bd 8304 153d
000000a0: d5fd cebc 9f05 973d 3eb8 d2bd 9b00 edbd
000000b0: e6be efbd 82d5 90bd 593c babd 5a88 e7bd
000000c0: f6da a23d ddb5 e83d 462f 98bd d327 503c
000000d0: c634 bbbd 4e95 efbd e7aa 003d 4635 f2bd
000000e0: 57b0 61bc 7cdc 5a3d 60b3 82bc 163d d6bd
000000f0: e855 5cbd dbaa b0bd c0ec a2bd 568e 413b
00000100: 16a8 513d 355b f93d 5b4f c9bd b83d e23d
00000110: 3065 c13d 039e c43d 970e 1bbd 8071 083d
00000120: e75a 50bd 7b3a 2dbd f6e1 e8bd 7f61 213d
00000130: ac15 6b3d 1065 973d 5ef3 ea3c e8d1 f53d
00000140: dae8 08be 5c71 e0bc 2f7d f23d 0eaf b33c
00000150: 0b82 623d 12e9 eb3d 76cc 8dbd 8e41 14bd
00000160: 30e9 433d 3f90 05bd b356 253d 5288 003e
00000170: 1b92 b13d 0843 59bd 7d68 acbd c350 053d
00000180: 531c 0b3d 9926 0dbd c86a 05be f71f dd3d
00000190: f80a 433d bfeb b43d 80a4 82bd cfa8 bdbd
000001a0: 7b03 40bd 8170 bf3d ee9a 7d3c 8f48 863d
000001b0: 4050 fabd 1fbf 5c3d 3ff4 253d eb68 b4bd
000001c0: 57c7 903d 004f c9bd ca66 01be 0a79 1b3d
000001d0: 2dbf 31bd cd4f 5c3d 1576 fa3c 65c3 003e
000001e0: e11c 0abc 2462 a73d 3988 d0bd e9a3 523d
000001f0: 34b3 d43d aaa3 fdbd 9f40 2c3c 8c72 1f3d
00000200: d2b4 4fbd 2df8 9e3d 57e8 d3bd 23e8 17bc
00000210: 1ea3 b63c 4b1a bfbd d750 2f3c 4d35 f73d
00000220: ea13 983d 04eb f33d 3dff d13d 8b89 3f3d
00000230: e905 c93c 24c9 933d 0d71 d23b 361d c8bd
00000240: 7e89 85bd 84eb cd3d d116 0d3d e678 e0bd
00000250: 2e8b a43d a9d4 433d a98a c33d a8b8 eb3d
00000260: 96ef ae3d e3b8 34bd a887 c73d 2a26 40bb
00000270: 333d e13d 2876 77bd 32a8 a73c 59b7 a3bd
00000280: 4256 dcbd 3ba2 e33c 1dd8 27bc 2cf1 103c
00000290: c3a9 b0bc b06b 693b 3715 e2bd 9854 18bd
000002a0: 87c2 09bd 4416 02bd 7c55 523c 26c9 213b
000002b0: f59b 57bd 2445 aabd d2cc fb3d 293e e2bd
000002c0: 2b3e d4bd f792 ff3c 92f9 0fbd 84be d3bd
000002d0: 5e0f 8d3d e0a8 0b3d 256f 183d a530 01be
000002e0: 93d3 beba a453 b13d 9301 adbd 315d ac3d
000002f0: 2b99 41bd 000f adbd 8a41 833d d3e1 32bd
00000300: 673d f03c 0984 d2bd 70e4 18bd 2656 70bc
00000310: a24f 553d d22f db3d d12e 963c 0a82 ffbb
00000320: d950 e1bd 967f 343d 2361 14bc 784e 85bd
00000330: 4a58 cdbc 5854 57bd ab21 7dbd ef39 6bbd
00000340: db08 b53c 97ba c23d 4538 ccbd 5a1d 97bb
00000350: 4b24 e73c ac79 cc3b 82d1 72bd 7987 e8bc
00000360: d62c 32bd b600 e73d 18c5 b7bc 0657 35bd
00000370: 6de1 8e3d 1f01 8f3c aa97 f93d ffcc 4abd
00000380: 06b9 5d3d da21 4ebd 1d69 c7bd 67d3 a63d
00000390: d65c e13d a8f1 84bd 9032 823d 9c68 183d
000003a0: be4c e73d becc 2b3c da9a bcbd f470 163d
000003b0: 061f 8abd fac3 e5bd 7e69 a53d e70c f2bd
000003c0: 05e5 1c3d 81a5 f53d 9563 abbd e4a7 eb3d
000003d0: d8b5 f93d 3d69 4f3d ffc0 16bc 79a6 f4bc
000003e0: b177 2c3d d26e d13d ce1f 83bd fbe6 513d
000003f0: d5c7 f5bd 09c0 62bd e5f3 0cbd 9c5a adbd
-0.015149101 0.10606643 -0.08141383 -0.055565238 -0.031619806 0.081976734 0.06878777 0.08918676
-0.00985188 -0.055616673 0.119015045 -0.057801172 0.046829674 0.089505166 -0.06565421 0.00534413
-0.05409802 0.13075984 0.05486419 0.045446664 -0.0032968626 0.061538924 0.08048385 -0.09389182
-0.115554444 -0.06246587 0.095255785 -0.10147974 -0.008725521 0.113013 -0.048928034 -0.12739599
0.012953095 0.0011662807 0.054985408 -0.09528252 -0.02437965 0.08994313 -0.089877166 0.036381256
-0.02526752 0.07374119 -0.10289048 -0.11572381 -0.11706333 -0.070719734 -0.09093542 -0.11305304
0.0795192 0.11362813 -0.07430892 0.012704807 -0.09140925 -0.116983995 0.031412985 -0.11826567
-0.013774953 0.053432927 -0.015954673 -0.1046087 -0.053792864 -0.08626338 -0.07955313 0.0029534302
0.05118569 0.121755995 -0.09829589 0.11046928 0.09443128 0.09600451 -0.03785571 0.033311367
-0.05086794 -0.0422921 -0.11371224 0.03939962 0.057393715 0.07392323 0.0286805 0.12002927
-0.13370076 -0.027397804 0.11840283 0.021934059 0.0552998 0.11519064 -0.069237635 -0.03619533
0.047829807 -0.032608267 0.040365886 0.12552002 0.086704455 -0.05304244 -0.08418367 0.032547724
0.03396256 -0.034460638 -0.13029015 0.107971124 0.047617882 0.088340275 -0.06379032 -0.09260713
-0.04687832 0.0934763 0.015478833 0.06556808 -0.12222338 0.053893205 0.040516134 -0.08809074
0.07069271 -0.09829521 -0.12636867 0.03795723 -0.04339521 0.05378704 0.030573884 0.12574537
-0.008429737 0.08173016 -0.101822324 0.05142585 0.10385743 -0.12384732 0.010513454 0.0389276
-0.050709553 0.077621795 -0.1034705 -0.009271654 0.022294577 -0.09331187 0.010700426 0.12070713
0.07425673 0.1191006 0.10253761 0.04676203 0.024538951 0.07216099 0.006422168 -0.097711965
-0.06520365 0.10054687 0.034445588 -0.109605595 0.08034359 0.04781023 0.09547932 0.1150983
0.08541791 -0.044121634 0.09742671 -0.0029319623 0.10998001 -0.060415417 0.020465944 -0.07993955
-0.1075864 0.027787318 -0.0102443965 0.008846562 -0.021565324 0.0035617165 -0.11039203 -0.03719005
-0.03363278 -0.031759515 0.012837764 0.0024686544 -0.052638967 -0.08313969 0.12294926 -0.11047012
-0.1036342 0.031198008 -0.03515012 -0.10339072 0.06887697 0.0340966 0.03721537 -0.12616213
-0.0014558904 0.08658531 -0.08447566 0.08416212 -0.047265213 -0.08450127 0.06408985 -0.043672394
0.029326154 -0.1027909 -0.03732723 -0.014668977 0.052077897 0.107024804 0.01833287 -0.0077974843
-0.110017486 0.044066988 -0.009056362 -0.06509107 -0.025066514 -0.05257067 -0.061799686 -0.057428297
0.02209895 0.095082454 -0.0997167 -0.0046116533 0.028215548 0.0062400904 -0.059281833 -0.02838491
-0.04349979 0.112794325 -0.022432849 -0.044272445 0.0697659 0.01745659 0.12187131 -0.049511906
0.05413153 -0.050325252 -0.09736846 0.081457905 0.11004035 -0.06491405 0.063573 0.03720914
0.11293934 0.010485826 -0.09209223 0.036728814 -0.067441985 -0.1121902 0.08076762 -0.11818867
0.038304348 0.11994458 -0.08368603 0.11506632 0.12192887 0.050637472 -0.009201287 -0.029864537
0.042106334 0.102262154 -0.06402551 0.05124567 -0.120010056 -0.05535892 -0.034412283 -0.08464548

lstm.weight_hh_l0 f4 [256, 64]
00000000: 2c64 39bd a19f 91bc 50ae 85bd 5c0d 763c
00000010: 3eb3 7ebd ff7d 913d c1e8 ffbd d0f9 8b3c
00000020: 19ac 96bd 68d1 e33d 39a3 e23b 0656 803c
00000030: ef3a bebd 5b62 a0bc 1e52 45bd ac30 a1bc
00000040: 5d6a debd 4566 c5bd 54f0 093d 61e4 01bd
00000050: ce89 a73c fe6f ff3c 506c aebd dbeb 843c
00000060: 41d9 f63d fd39 edbd b9c0 fcbd 2dc3 c13d
00000070: 841e 4d3d 612f 543c 6cc3 c5bd f43d 723d
00000080: d492 89bd 7bef c13d 8207 923d 48a1 febc
00000090: 0391 efbb 164b a53c 0e22 cb3d 1125 e4bd
000000a0: 1b0a 223d 5f36 80bd b402 a13d f85a b3bd
000000b0: 2686 c6bd 9a52 febc 46bb 7f3b 3c29 f53c
000000c0: 7236 30bc 47b6 92bb 99cb ae3d 891d 87bd
000000d0: 4e98 cb3d 0c1c 1d3d 1904 e93d 345e 5d3d
000000e0: 0f6a 813d d5b1 d8bc 68ae debd 86b3 083d
000000f0: c87d 4a3d 090a c43c 5594 eebc 2881 b6bb
00000100: c8d2 303d d056 c8bd 9d99 c33d 88d5 b13d
00000110: e78b 0f3c 92ca acbc bf5a 843d 48e2 f43d
00000120: 5b7c eebd 53f5 4a3c 2cc9 ef3d e042 703c
00000130: c96c 933c 455a 7abd ddaa bd3d d64c 1ebd
00000140: b375 72bd 3c92 c8bd 7e8b 77bd 3f17 363c
00000150: b224 003e 3cb3 77bd 5f08 f53c f2fa 163d
00000160: bb7f 70bd d1f4 05be 6a9b a53d 7b8c 2f3d
00000170: 2779 01be 15d6 ccbd f15e 2ebc bbbb d13d
00000180: cfc1 e83d 5f09 d5bd ebfa 5a3d c8bf d43d
00000190: 0d09 523d 2661 53bd 4023 cebd f41c 823c
000001a0: 9bbb cf3d 29b2 823b 72d8 1b3b 90e0 77bc
000001b0: 9c19 bcbd b66f 4dbd f972 04be f8bc e83d
000001c0: ea37 69bd dfd6 bfbd d915 fe3c 7a43 a93d
000001d0: c8fc 853d 54eb 363d 6a7b 0ebd 63f1 bdbd
000001e0: 2433 d3bd 6d13 2e3d 1af2 75bd c06c f63d
000001f0: 797e 533c 91ed 05be 72bb f73d abb3 d5bb
00000200: 8afb 9c3d 4dbc 99bd 910f fcbd a357 a2bd
00000210: 9f7d 13bc 14b2 4c3d 8ebc 6a3d 06da 68bd
00000220: 460a cc3d b79b 89bc 8ba3 ed3d 9665 263d
00000230: d0a1 dd3d 8282 a53d 256d 543c d6d1 85bd
00000240: 26b1 b2bc 2c82 25bd 6ef9 933c a626 c93c
00000250: 02e9 fc3d ca30 bebd ba95 c2bc d65d e7bd
00000260: 4c41 3f3d 3b3b 30bd 683d 70bd ed98 aabd
00000270: 88ba 98bd 1cc2 96bd 5bdb f93d 825d d63c
00000280: 48de a23b 8591 b5bd 303d ac3d fc79 a5bd
00000290: 64a5 66bd 1f5f c3bd 2c95 363d 5b43 993d
000002a0: a676 223d a436 44bd 1b9d f6bb 93c3 a03d
000002b0: c2cc fd3b 578e c73c cb14 92bb 19cc 9bbc
000002c0: 40f5 ba3d 70c2 acbd ed49 3a3d d8d8 8bbd
000002d0: 1fb3 5ebd 8e24 7f3d bbdd 233d 598b e5ba
000002e0: 266d e23d 7e6c 823d 2782 8b3b e44a 353d
000002f0: 34ef de3d 0217 d7bc b7ce 8c3c 8b00 f23d
00000300: 5f72 ae3d 0e10 ac3d 0c1c d4bd 0cbf e2bd
00000310: 1e8e 4c3d fc9a f83d 4ae2 01be fd62 fa3d
00000320: ef25 80bd da41 743c abb5 c4bc 9ec7 403d
00000330: 4ec6 18bd bc7a 15bd 04a4 973c 8b43 043e
00000340: 848e b13d aa0f 8dbd 3194 9c3d 26c2 293d
00000350: 5c05 bbbd 7687 ba3c 6288 fa3d 1c27 ed3d
00000360: 1ab5 c73d 992c f33b 8801 99bd 039c 09bc
00000370: 75a1 a8bd ea2c b23d 49b6 babd 86e7 14bc
00000380: 0a72 f6bc 07b7 98bd d968 bcbc 7c8d 41bd
00000390: 3fa3 17bd 4ffa 0bbe e476 d0bd aac2 043e
000003a0: e205 80bd 090e e1bd 00de b73d 61d3 cf3d
000003b0: 1a61 f13c 0c28 81bd dd17 973d 687d d9bc
000003c0: 66d4 a73c 5c3e 593d c62e 803d 777c cabd
000003d0: fd24 993d 6c04 d1bd 5e6e 663d 6060 6b3d
000003e0: 36b2 bd3d f5e3 67bd 77ff 543c 69db 083e
000003f0: a5b0 af3d c8d5 99bb 7d86 043d 3767 8e3d
-0.045261547 -0.017776312 -0.06527388 0.015017834 -0.062182657 0.0710411 -0.12495566 0.017086893
-0.07357044 0.111239254 0.0069164303 0.01566602 -0.092885844 -0.01957815 -0.048174016 -0.019676529
-0.10860131 -0.09638647 0.03367646 -0.03171194 0.020451453 0.031181332 -0.08516753 0.016225746
0.12053157 -0.11583326 -0.123414464 0.09461055 0.05007793 0.012950749 -0.096564144 0.059141114
-0.06717458 0.094695054 0.07130338 -0.031082764 -0.007310988 0.020177405 0.09918605 -0.11139882
0.03956042 -0.062603705 0.07861844 -0.08757585 -0.096935555 -0.031045247 0.0039021536 0.029926889
-0.010755168 -0.0044772956 0.08534927 -0.0659743 0.09941159 0.038356826 0.11377735 0.054044917
0.06319057 -0.026451984 -0.10873109 0.033374332 0.04943636 0.023930566 -0.029123465 -0.005569596
0.043169767 -0.09782183 0.09550784 0.08683306 0.008761383 -0.021092687 0.06462621 0.11957222
-0.11644813 0.012387591 0.11708292 0.014664382 0.017996209 -0.061121244 0.09261105 -0.038647495
-0.059194278 -0.09793517 -0.060435764 0.011113941 0.12513998 -0.060473666 0.029911218 0.036860414
-0.058715563 -0.13081671 0.080862835 0.042858582 -0.12643872 -0.100017704 -0.010642753 0.10240885
0.11365091 -0.10402178 0.05346195 0.10388142 0.051278163 -0.05160632 -0.10065317 0.015882947
0.10143205 0.0039885235 0.0023780135 -0.0151292235 -0.09184572 -0.050155364 -0.12934484 0.11364168
-0.05693809 -0.09367155 0.031016277 0.08264823 0.06542355 0.04465802 -0.034785666 -0.092745565
-0.10312489 0.042498995 -0.06004534 0.12032461 0.012908571 -0.13078906 0.12096299 -0.006521662
0.07665165 -0.07506619 -0.123076566 -0.07926872 -0.009002118 0.049974516 0.057308726 -0.05684855
0.09962897 -0.016797883 0.11603459 0.040624224 0.10821879 0.08081533 0.012965475 -0.06534164
-0.021812987 -0.040407345 0.018063273 0.024554562 0.1234913 -0.092866495 -0.023753036 -0.11297195
0.04669313 -0.043025237 -0.05865231 -0.083299495 -0.07457453 -0.07361242 0.12200042 0.026167635
0.0049703456 -0.08865646 0.08410108 -0.08079907 -0.056310073 -0.09539627 0.044575855 0.0748355
0.039663933 -0.04790367 -0.0075260527 0.07849803 0.0077453563 0.024359865 -0.004458045 -0.01901822
0.09128809 -0.084355235 0.045480657 -0.06828469 -0.054370042 0.06229072 0.04000638 -0.0017512842
0.11055975 0.063683495 0.0042574587 0.044260874 0.10885468 -0.026256088 0.017188413 0.1181651
0.08517908 0.084015 -0.10356912 -0.110715955 0.04994022 0.12138936 -0.12683979 0.12225912
-0.06257235 0.014908278 -0.024012407 0.04706537 -0.037298493 -0.036494 0.018510826 0.1291639
0.08669761 -0.06887753 0.07645453 0.04144492 -0.091318816 0.022769671 0.12233044 0.11579725
0.09751339 0.007421088 -0.07470995 -0.0083990125 -0.082339205 0.08699973 -0.091167994 -0.009088403
-0.030083675 -0.07456785 -0.022999214 -0.04725407 -0.037020918 -0.13669704 -0.101789266 0.12964883
-0.06251122 -0.10989005 0.0897789 0.10147739 0.029465247 -0.063064665 0.073775984 -0.026549056
0.020487022 0.053037986 0.06258921 -0.09887021 0.07477758 -0.102059215 0.056257598 0.057464957
0.09262507 -0.05661388 0.013000361 0.13364948 0.08578614 -0.004694674 0.03235482 0.069532804

lstm.bias_ih_l0 f4 [256]
00000000: 95cd eabd a134 a63d 3597 9d3d e46f 0d3d
00000010: 59b1 70bd 9982 90bd 5a64 a6bd dfbf d0bc
00000020: 1cf6 2cbd e147 173d 8ee9 41bc 8325 1cbd
00000030: 2445 d63b 25e8 383d 73b1 80bd aeb3 0e3d
00000040: 2ab5 9e3d 7415 e33d a50b 8cbd 0586 97bd
00000050: 0a04 f1bd d34b 28bc 0516 54bd 2d65 b7bd
00000060: 4765 5d3d c5bf 95bc abe2 efbb 6746 fa3d
00000070: 2f4f 96bd d834 213d 3fd3 cd3d 7ef5 c63c
00000080: 4196 c63d 9dee 6abd d50d 5e39 f8f0 cc3d
00000090: 9e68 b9bd 2f5d e4bc 5057 27bb 795c 853d
000000a0: 28ae 10bd 5c70 7b3d d0f1 e23d 9c47 293d
000000b0: ea89 f7bd 6c82 a8bd d811 65bd eeb0 e13d
000000c0: 9d8c d53d 7a1a cfbd 2e42 8fbd 5059 a9bd
000000d0: 7051 d73d c817 053e f7ba 6d3d 620a 88bd
000000e0: 7af1 41bc 5c0d 6fbd eddf 7ebc 00d7 093e
000000f0: bfc6 e93d 45b8 f93d b4ee e63d b94b 04be
00000100: 8ac5 f5bc b4a8 cb3b 737d e23d da17 9fbb
00000110: 2dc6 9fbd 2311 c5bd 571a b7bd f19c e53c
00000120: ab4b 7bbd 1da7 03bc 57b8 aabc 4c1c b1bd
00000130: e2f5 bdbd 2a67 1ebc 33c7 3d3d a763 af39
00000140: 666b 743d 1885 4d3d 9e0c 853d 3aed b2bd
00000150: a416 a1bd d195 443d 8d6b 45bc ef80 f7bd
00000160: 227c bd3d ec9e 073d be65 853d 2ccf ecbd
00000170: 91c3 adbd f6d5 f7bb e3c2 b4bc 7195 b33d
00000180: 0c86 3f3d b45e 8c3d 0b7b aa3d 9fec cbbd
00000190: 3548 f93d 28aa f0bc 8fc3 d53c 2a81 9dbd
000001a0: 68e3 76bd 8420 c5bd e98e cfbd ac1b 6ebd
000001b0: 2a6a 3f3d 717e e1bd 1af0 2abd f43e 68bc
000001c0: 02ac 1c3d 2832 a03d d2bb 66bd ace1 9b3c
000001d0: 8510 d6bd 7c4e 843d bd45 6bbc 1e9e 603c
000001e0: a421 da3d e598 ba3d 1d7b a63d 10b3 b83d
000001f0: 94ce 8ebd 3c4e 6cbd 6a23 c23d 7816 e7bd
00000200: 0812 e6bb 9738 653c 24e6 0ebd 2565 f53c
00000210: 7582 173d 47ff 3fbc 40c2 0b3d 8fec e93d
00000220: eea1 f8bc 84f2 07bd 9731 d83d 1c16 e03a
00000230: f940 c33c fe91 dcbc 5a3a 053b 3977 ff3d
00000240: 270b 60bc 38e8 0b3b a584 ed3d 5715 ca3d
00000250: 20a7 bf3d 5364 b53d ba30 8f3c ab43 90bd
00000260: 73e5 36bd 6d6b 083d dbe8 b5bd ddc8 44bd
00000270: 49d5 c2bd 8e44 863d dfc4 6a3d 1ad6 9dbd
00000280: 4913 d1bc dee0 263d 729f 4d3d 97bc 3a3d
00000290: fcad 5bbd 1476 53bd dd21 e03d 7c11 b0bc
000002a0: 79ef c73d 3ef9 953b d0ca 543c 6317 9c3d
000002b0: 39eb e6bb ec3b edbd 2182 9abc df1c de3d
000002c0: 79f0 abbd 2047 e83d 8e06 3ebd 8e34 8cbd
000002d0: 585f f93d f558 e6bd 1e9d e4bd 26df 92bd
000002e0: a1fd f1bc 125c 373d 4ba1 fbbd 862f d3bd
000002f0: 4fbd 7d3c 6c87 6c3d 4d51 fd3d 5148 de3d
00000300: 0603 9f38 b1c7 08bd 45f4 8dbd f305 383d
00000310: 809e 8d3d 04ef c2bd ba83 9fbd d214 c33d
00000320: fe74 db3d bf29 c8bd 44b3 28bd 5ecf 9dbd
00000330: 8db2 4ebd fb3e a63c 3051 483c b823 42bd
00000340: 2501 b3bb d068 383d 731d 92bd ad41 90bb
00000350: dbf3 c33c e8e3 8b3d cb94 d4bd 1b8f ad3d
00000360: f7dd adbd 686b 213c db90 5a3d 0313 2dbd
00000370: c47c 39bd 4ce9 74bd 4171 97bd 3cea 06bd
00000380: c1a5 313b 045a d9bd c718 333d 8ad4 b9bd
00000390: e56a cfbd 42a2 95bd d7ce 9dbc 9828 d43c
000003a0: a98d cfbd 4074 15bd 6ca2 1fbc 9f2e 1a3c
000003b0: 9970 7fbd 2e79 cdbd 79c3 a7bd cc36 79bd
000003c0: 1cc3 7ebd fdc6 eb3c 42a2 ba3d cc31 a0bd
000003d0: 4990 c4bd 6320 a93c c30c 84bd 4ea9 66bd
000003e0: 054f b4bd a237 61bd 6101 81bc c206 e6bd
000003f0: 2683 5d3d ab79 16bd aeee f63d b52c 9fbb
-0.11464993 0.08115507 0.07694856 0.034530535 -0.058762882 -0.070561595 -0.08124609 -0.025482116
-0.042226896 0.036933783 -0.011835469 -0.03812171 0.006539004 0.045143265 -0.06283846 0.034839325
0.07749398 0.11088076 -0.068381585 -0.07398609 -0.117683485 -0.010271984 -0.051778812 -0.089548446
0.054051664 -0.01827992 -0.007320722 0.122204594 -0.07339322 0.039357036 0.100500576 0.024286982
0.096966274 -0.057356466 0.00021176723 0.10006899 -0.09053157 -0.027876465 -0.002553422 0.065117784
-0.03532234 0.06138645 0.11081278 0.041328058 -0.12086852 -0.08228001 -0.05592522 0.11020075
0.104272105 -0.10112472 -0.06995045 -0.08268988 0.1051358 0.12997353 0.05803963 -0.06642605
-0.011837358 -0.05836235 -0.015556318 0.13460922 0.11414861 0.1219335 0.11275998 -0.12919511
-0.03000142 0.0062151793 0.11059084 -0.0048551382 -0.07801471 -0.09622409 -0.08940571 0.028028937
-0.06135146 -0.008035448 -0.020839853 -0.08647975 -0.09275414 -0.009668151 0.04633255 0.00033452848
0.059672736 0.050175756 0.06496547 -0.087366536 -0.078656465 0.04799444 -0.012049568 -0.12085139
0.09252192 0.033110544 0.065135464 -0.115629524 -0.08484567 -0.007563348 -0.022065585 0.08768738
0.046758696 0.06854001 0.0832425 -0.09957241 0.121719755 -0.029378012 0.026094226 -0.07690652
-0.060275465 -0.096253425 -0.1013468 -0.05813186 0.046732105 -0.11010445 -0.041732885 -0.014175165
0.038249977 0.078220665 -0.056331463 0.019028507 -0.104523696 0.06460282 -0.014359889 0.013709573
0.10650948 0.091111936 0.08128951 0.090185285 -0.069729954 -0.057691798 0.09479411 -0.112835824
-0.0070211925 0.013990543 -0.034887448 0.029955456 0.036989648 -0.011718578 0.034120798 0.11422073
-0.030350652 -0.033190265 0.105563335 0.0017096433 0.023834692 -0.026925083 0.002032897 0.12473912
-0.013674534 0.002134813 0.115975656 0.098673515 0.093580484 0.08857026 0.01747929 -0.07044157
-0.044652414 0.033305574 -0.08882304 -0.04804312 -0.09513337 0.065560445 0.057316657 -0.07706852
-0.025521891 0.040741794 0.050200887 0.04559001 -0.05363272 -0.05162628 0.10943959 -0.021492712
0.09762473 0.004576831 0.012987807 0.07621648 -0.0070470837 -0.11583695 -0.018860878 0.108453505
-0.08395476 0.11341691 -0.04639297 -0.068459615 0.121763885 -0.11247436 -0.1116278 -0.071714684
-0.029539885 0.04476554 -0.122866236 -0.10311799 0.015487029 0.057746336 0.123690225 0.10853637
7.582274e-05 -0.033393566 -0.06931356 0.04492755 0.06914997 -0.09518245 -0.07788797 0.095254555
0.10715674 -0.097735874 -0.041186586 -0.07705568 -0.050463248 0.020293703 0.012226388 -0.047397345
-0.005462783 0.045021832 -0.07134523 -0.0044023604 0.02391999 0.06830579 -0.103799425 0.08474561
-0.08489602 0.009852268 0.0533608 -0.04225446 -0.045285 -0.0597928 -0.07394648 -0.032938227
0.0027106854 -0.10612872 0.0437248 -0.09073742 -0.101278104 -0.07306339 -0.019263668 0.025898263
-0.101344414 -0.036487818 -0.009743314 0.009410529 -0.06236324 -0.10032879 -0.0819158 -0.060843274
-0.06219779 0.028781408 0.091129795 -0.07821998 -0.09597833 0.020645326 -0.064477466 -0.056313805
-0.08804134 -0.054984696 -0.015747728 -0.11231758 0.05408015 -0.036737125 0.12057243 -0.0048576244

lstm.bias_hh_l0 f4 [256]
00000000: 3137 013e 2992 3cbd bd63 e63d 4ca9 92bd
00000010: 0f97 b63d 170e 283d 2b94 0dbd b578 193d
00000020: 18d2 043e f9c8 363d 9a36 fbbc aa10 ee3d
00000030: d6db 83bd 8da9 0f3d abed c2bd cb06 91bc
00000040: 35e6 193d b92e 08bd 84dc 2fbd e5bf bb3d
00000050: 74fe 94bc 88d9 a73c b4e9 c4bd 2ce2 533d
00000060: d257 8c3d a363 b6bb 2981 dc3d 0d00 f43d
00000070: c56e cf3d 7e4e a83d 92cd afbc ae26 033e
00000080: 63d9 c23d 393f 9bb9 8f53 09bd a670 d7bd
00000090: deb8 e5bd e278 ccbd 56ea 5ebc 233e 743d
000000a0: 52d8 aebd e571 863d 169e e8bd e22a e3bd
000000b0: c6b4 873d 06b5 9bbd d491 55bd 008e 003e
000000c0: fe5a 47bd c4ce 31bc 4c46 003e 8ede d63c
000000d0: a88a ba3d 9ca6 69bd cd25 15bd f668 dcbd
000000e0: 9616 24bd 9de3 aebd f6b8 2dbc 2a8a 96bd
000000f0: ddd2 a33d 7d73 0a3c e46a babd 8ca7 8ebc
00000100: f3ba 073d 9667 503c a31d 7e3c 081f a9bd
00000110: f99f d6bd aa50 093d 0e5a 06bd 0750 adbc
00000120: cf9b 903c ec10 41bd ed12 013d 2ae2 c33c
00000130: 8220 533d 3454 5ebd 8238 f03d a1ce e2bd
00000140: 6247 eb3c 8c5b 25bd 4bfc eabc 36b8 a9bd
00000150: f043 893c 714e b63d 5197 53bd b109 b23d
00000160: 53cc dabc ca47 8fbc 475f 86bd 2cd0 7abd
00000170: c108 d2bc 3132 a0bd 2949 b3bb f90f c9bd
00000180: 5dc0 b4bd 702f e23c d8f2 4cbd bd27 7ebb
00000190: 214f 21bd 967f fcbd 7030 083d 5974 a53a
000001a0: 65d4 b73c b6ae d53a 3e55 f73b f447 0abd
000001b0: bbf3 84bd 8bf2 92bd f6f6 42bd dd56 b23d
000001c0: 71d3 4abc b2a9 083d 828c 3abd 8ed2 90bd
000001d0: e68f f53c ea73 323a edb2 253d 2084 4bbd
000001e0: b4a5 e0bd 5d39 253d c7f9 093c df69 513c
000001f0: 9f67 153d f0b5 5f3d 2ebc d73d 1ec7 833d
00000200: 7b49 c03d adb2 233d 4183 07bd ada6 fdbd
00000210: 0aea a93d 896f 143c 0c38 2bbd 4d2b e63d
00000220: 1457 e23d cc99 dfbd 5d71 b83d 14d1 fe3d
00000230: 919d 2dbd d6d5 623d a9c8 c33d 7bd9 af3c
00000240: 99a4 d5bd b2ea 543d ad31 b6bd 26e5 813d
00000250: 3461 a53d 7044 613c 0dbf 343d 8fe4 a53d
00000260: f43a d4bc 3f59 63bd 5bf0 91bd ba66 833d
00000270: 55b4 a2bb 7c3e e03c 40c9 8f3d 74e7 a4bd
00000280: e272 f8bd 4af7 6b3d 1e05 403d 1617 87bd
00000290: 2c18 15bd a72c bbbb 3530 053d 6edb b8bc
000002a0: ef2b 93bd 304b c8bc f0af 76bd cfba 023e
000002b0: f227 f03d 3e48 d13b 979e b13c 0a30 74bd
000002c0: ab93 e43d e99c 76bd 56c1 2c3d 8e77 debd
000002d0: 589d 0c3d d708 4c3c a220 9abc 0a2d ebbd
000002e0: 29f5 db3d bab6 e23d ab97 6abd 3688 fabd
000002f0: fd3d f6bd 3c31 36bd ecd3 a73d 7d06 febc
00000300: 5660 863b d072 473d 2af6 1ebd 0e2f e43d
00000310: 7a35 0c3d 6632 ce3d da4b e23d 7244 d5bd
00000320: 7990 c1bc 3357 4cbd 05c5 0a3d 76b2 acbc
00000330: 70dc c23d 93c0 d03c 8ea3 e23d 24ad a9bd
00000340: 898c 833d c53f c7bc f17e 81bd fd3c 983d
00000350: 137f ac3c ed5f c33d 674c 143d d99a 0abd
00000360: e717 f5bc e400 a93d 6a19 c6bd 1c67 f03d
00000370: 515d c13d 7d66 99bc 59f4 e63c 8b91 cf3d
00000380: a237 efbd ae7a 843d eb6e c63d 2ab1 e2bd
00000390: 5202 343d 24b8 a53d f280 aebd 054f d13b
000003a0: 73dd 9d3d 15fb 99bc d011 e6bc db53 a3bd
000003b0: 9f6e be3c 1a83 283b 6df1 1cbc 6724 f3bd
000003c0: ee67 783b afdc c1bd 84c8 d5bd a6f6 b2bd
000003d0: c827 123d 71a8 473d ca13 e7bd 04ed 8e3d
000003e0: a9b1 983d 76a3 2d3d 7d9e dd3d 141c 00bd
000003f0: dce9 a43d fdee f8bd 381d dc3d 1d1e 0bbb
0.1261871 -0.046037827 0.11249492 -0.07161197 0.08915531 0.041029062 -0.034565132 0.03746863
0.1297077 0.044625256 -0.030665684 0.11624272 -0.06438415 0.035073806 -0.09517988 -0.017703434
0.03757306 -0.033247683 -0.04293491 0.0916746 -0.018187739 0.02048947 -0.09614888 0.051729366
0.06852688 -0.005566077 0.10766823 0.11914072 0.101285495 0.08218096 -0.021460328 0.12807724
0.095141195 -0.00029611008 -0.033526953 -0.10519533 -0.11216901 -0.09983994 -0.013605675 0.05962957
-0.085373536 0.065646924 -0.113582775 -0.110921636 0.06626277 -0.07602887 -0.052141026 0.12554169
-0.04867076 -0.010852519 0.12526816 0.02622917 0.09108478 -0.057043657 -0.036413003 -0.10762207
-0.040060602 -0.085395075 -0.01060318 -0.073505715 0.07999203 0.008450386 -0.09102419 -0.017413877
0.033137273 0.012720009 0.015509996 -0.08257872 -0.10479731 0.033524193 -0.032800727 -0.021156324
0.01765242 -0.04713528 0.03151219 0.023911554 0.051544674 -0.05427952 0.11729528 -0.110745676
0.028720561 -0.04037051 -0.028684756 -0.082870886 0.016756028 0.0890168 -0.05165798 0.08693255
-0.026708758 -0.017490286 -0.065611415 -0.061233684 -0.02563894 -0.07822073 -0.005471368 -0.098175
-0.08825753 0.02761051 -0.05003628 -0.003878101 -0.039382104 -0.123290226 0.03324932 0.0012623175
0.022440145 0.0016302678 0.0075480035 -0.033760026 -0.064918004 -0.07175168 -0.0475988 0.08707974
-0.012379513 0.03336496 -0.045544155 -0.0707141 0.029975843 0.00068074337 0.04045384 -0.04968655
-0.10969105 0.04033791 0.008421368 0.012781589 0.036475774 0.05461687 0.10533939 0.06434463
0.09389015 0.03996532 -0.033084158 -0.123853065 0.082965925 0.009059795 -0.041801497 0.11238728
0.11051765 -0.10918006 0.09005997 0.12442222 -0.042386595 0.05537971 0.09559757 0.021466007
-0.10431785 0.051981635 -0.08896194 0.06342535 0.08075181 0.013749227 0.044127513 0.08100235
-0.025907017 -0.055505034 -0.07125922 0.06416078 -0.004965345 0.027373545 0.07020807 -0.08051959
-0.12131287 0.05760888 0.04687988 -0.065962 -0.036400005 -0.00571211 0.032516677 -0.02256557
-0.07186114 -0.024449915 -0.06022638 0.12766574 0.11726369 0.006386786 0.021682067 -0.059616126
0.11160978 -0.060208235 0.042176567 -0.10862647 0.034329742 0.012453279 -0.018814389 -0.114832
0.1074012 0.110700086 -0.057273548 -0.122330114 -0.12023542 -0.044480547 0.08194718 -0.031008953
0.0041008396 0.048693478 -0.03880898 0.111417875 0.034230687 0.100682065 0.11049624 -0.104134455
-0.02362846 -0.049887847 0.0338793 -0.02108119 0.09514701 0.025482452 0.11066352 -0.08284977
0.06423289 -0.0243224 -0.0632304 0.074335076 0.021056687 0.09539781 0.036205675 -0.03383908
-0.029918624 0.08252123 -0.09672816 0.117384166 0.09441627 -0.018725628 0.028192686 0.10135182
-0.11680533 0.06468712 0.09689125 -0.110689476 0.043947525 0.08091763 -0.08520688 0.0063875937
0.07708254 -0.018796483 -0.028084666 -0.079749785 0.023246108 0.0025712908 -0.009579045 -0.118721776
0.0037903744 -0.0946592 -0.10438636 -0.08738451 0.03568247 0.048744623 -0.11283071 0.06978801
0.07455761 0.042392217 0.10821245 -0.031276777 0.08052418 -0.121549584 0.107477605 -0.0021227666

lstm.weight_ih_l1 f4 [256, 64]
00000000: 1d72 4bbb 24e6 2f3c 7a08 0d3c 0896 95bd
00000010: 1176 893d c885 9abd 0c86 413d 5200 26bd
00000020: ad4f 423c 625c d73d e09b 7b3d c846 e33d
00000030: 7487 c3bc 466b fe3b e665 b93d 540a 103b
00000040: dd8c df3d 9b03 873d 8339 c4bd ad6b 963b
00000050: 978a 84bd ae42 8ebd d8e2 97bd cdb5 e4bd
00000060: 4c87 3abc c4e9 983c 4510 ad3d 8cc6 e8bd
00000070: bf90 cdbc 51e8 8abd 438a eebd 1af1 7a3d
00000080: 6a8e c9bc fe6e 44bd f51b 883d 86d4 b83d
00000090: 1259 a73d d2ab d23d 8fc2 023d 2019 0e3c
000000a0: fa4a b43d 7d21 853c 4213 bb3d dec0 9a3d
000000b0: 371a 053d 2534 8abd 353c e2bd 416a 2a3c
000000c0: 0ae6 64bb b6e7 adbd ec3f 0839 32d0 2c3d
000000d0: 0476 3d3c 266d c9bd f17f 443d 15e7 823d
000000e0: 85e5 993c 2783 cdbd 8f3c afbd 6c4d 89bd
000000f0: faa6 d6bc 1130 d8bc 8ec7 693d fe14 cd3d
00000100: 8d43 593d 75b3 303c 9398 f83d dbe2 d9bc
00000110: 58d6 09bb d961 32bd 58dc 273d 8ecd 19bd
00000120: 6ffc 023d 52d9 af3d 8297 70bd 5a7c d8bd
00000130: c8ed f0bd 0703 f6bc 65a2 cabc 355b 4f3d
00000140: aec1 9abd bdb6 b6bd 5fa5 e7bb 0ef4 dfbd
00000150: 6162 bb3d 9c7f 5c3d 8c92 1c3c d234 943d
00000160: 001f a83d 48ac 4c3d ab7c 953d af67 a3bd
00000170: c2b8 a2bd e578 853d 317c eabd cc8b a1bb
00000180: a83d b13d 202d 87bc bc81 6ebd 7d36 83bd
00000190: 2139 67bd fb95 2f3d e2a9 a23d bfaa e23c
000001a0: e97f a43d c903 ae3d cbcb c9bd c3cc 923d
000001b0: 02e7 bf3d eb43 213c 1386 643c a520 fabd
000001c0: 2b8f cd3d 2317 ad3d 19e4 373a fe73 913d
000001d0: ac3f f03c 31a2 f3bd 6d46 fc3d fc1d 18ba
000001e0: 746b 27bd 06fa 9ebd 8ac1 61bd 00bf 8d3d
000001f0: d05f 6fbb a73f a0bd 338c c33c 3da2 a5bd
00000200: 1e60 3cbd d789 813d bcd2 cebd 0d44 f5bd
00000210: 7519 633a 6fe9 bd3d 6bfe a23d 1e21 153d
00000220: 722f e63d 7990 c2bd d232 cebd 3b1c f43d
00000230: 5921 e9bc c09a f23d d376 c5bd c5de acbd
00000240: a0d4 423d 05bb 923d 3366 96bd cb32 e9bd
00000250: 72cf 563d dec3 8bbc 424b 733d a3ad d93d
00000260: c085 9cbb 0bc1 df3d bf7c a23d 91df 053d
00000270: 86fc c0bd 5acb 83bd 9916 c9bd e54c 3a3d
00000280: e9f9 c33b 192c 42bd 20ba 033e d01a 4a3d
00000290: c693 2a3d 0235 923d ff8b 903d c76f 0d3d
000002a0: 75df a83d 4ce5 c63d ce8d 0bbd b176 d83d
000002b0: 6557 bfbd 1a49 cf3d 0b3c ebbd ba98 b23d
000002c0: e0ac 813d ffc4 64bc 92a8 cabd 5ddf b93c
000002d0: 0d65 0d3d 0667 cdbd 6fd3 cbbd dc59 e33d
000002e0: 9ce7 afbd 590e 7b3d ff18 b33d 1c1d a23d
000002f0: 4035 e93d 94eb 8d3d 0cc5 03bd a2dc ec3d
00000300: 6874 96bd 9e38 90bd ad3b b33d 484c ecbc
00000310: b12c ddbd 6298 04bd 7180 9c3b a92a 66bc
00000320: 0dba 96bd 94b0 17bc bccb ffbd 1f84 ac3d
00000330: 2687 12bd 30fd eebd b5b4 613c 9996 d83d
00000340: 3dd4 c2bd d88b 943d 6199 133d 90c9 b0bd
00000350: ebce d43d 3468 d4bd 68de 99bc 0600 bfbd
00000360: 71a5 e4bd 9129 fabd 2b3a 133d 42e7 b83c
00000370: 1831 a3bb 9a98 60ba 107a 07bd 1452 93bd
00000380: 6166 debd 79ec 3cbd f3a8 023d 730a 5b3d
00000390: b8c4 b13d 0dbd edbd 6209 2bbd 6319 5f3d
000003a0: e34c b03d a72c 903c fbbd dd3d ab3f 253d
000003b0: 919c 8a3d 6880 3b3d d566 fa3c 30f0 d23d
000003c0: 5ed2 73bd aa78 e73d 0ffe c4bd a22e 163d
000003d0: a3ac 83bd 1104 85bc 71e6 98bd a134 c93d
000003e0: 4c29 003e 0bd8 52bd 7e4b 49bc 091c c3bd
000003f0: 3e4e f93d 4592 ee3c c960 82bd c3bb 8bbd
-0.0031043359 0.010736022 0.008607978 -0.07304007 0.067119725 -0.07545048 0.047246978 -0.04052765
0.0118598165 0.105156675 0.06142795 0.11097485 -0.0238683 0.007764253 0.09052639 0.0021978812
0.109155394 0.065924846 -0.09581282 0.0045904727 -0.064717464 -0.06946312 -0.07416314 -0.11167488
-0.011384796 0.018666156 0.08450369 -0.11365995 -0.025093434 -0.06782592 -0.11647465 0.06126509
-0.024604041 -0.047957413 0.066459574 0.09024911 0.08171286 0.102866784 0.031923827 0.008672982
0.08803363 0.01625132 0.091345325 0.07556318 0.032495704 -0.06748227 -0.1104664 0.0104013095
-0.0034927153 -0.08491461 0.00012993783 0.042190738 0.011563782 -0.098352715 0.047973577 0.06391732
0.018786201 -0.10034781 -0.085564725 -0.0670422 -0.026202668 -0.026390107 0.057075076 0.100137696
0.053042937 0.010784973 0.12138476 -0.02659743 -0.00210323 -0.043550346 0.04098162 -0.037549548
0.03197902 0.085863724 -0.05873824 -0.10570593 -0.11764103 -0.03003074 -0.024735639 0.05062409
-0.07556473 -0.08921573 -0.0070692743 -0.109352216 0.09149624 0.053832635 0.009556424 0.07236637
0.08209038 0.049968988 0.07299169 -0.079787605 -0.07945396 0.065171994 -0.11449469 -0.004929995
0.08654338 -0.01650101 -0.058229193 -0.06406877 -0.056450967 0.042867642 0.07942559 0.027669309
0.080322094 0.08496816 -0.098533235 0.071679614 0.09370233 0.009842853 0.013947981 -0.12213258
0.10037073 0.084516786 0.0007014885 0.07102202 0.029327236 -0.1189617 0.1231812 -0.0005802808
-0.04087396 -0.07762532 -0.055116214 0.06921196 -0.0036525615 -0.07824641 0.023870563 -0.08087585
-0.045990102 0.06325119 -0.10098788 -0.1197587 0.0008663156 0.092730395 0.079586826 0.036408536
0.11239518 -0.09500212 -0.10068287 0.11919447 -0.028458284 0.118459225 -0.096418045 -0.084409274
0.047566056 0.071645774 -0.07343712 -0.11386641 0.05244393 -0.01706117 0.059397943 0.10628822
-0.0047766864 0.10925492 0.0793395 0.032683913 -0.09423165 -0.064352706 -0.09818763 0.04548349
0.0059807193 -0.047405336 0.1286397 0.049341977 0.041644834 0.07139017 0.07057952 0.034530427
0.08245746 0.09711704 -0.034070782 0.105695136 -0.09342841 0.10121365 -0.11486062 0.087205365
0.063318014 -0.013962983 -0.098954335 0.022689516 0.034520198 -0.10029416 -0.09952437 0.11101124
-0.08589098 0.06129298 0.08745002 0.079157084 0.1138711 0.069296986 -0.03217034 0.1156552
-0.073464215 -0.07042049 0.087516166 -0.028844967 -0.1079954 -0.032371886 0.0047760536 -0.014048257
-0.07359705 -0.009258408 -0.12490031 0.084236376 -0.03577342 -0.116693854 0.013775994 0.10575599
-0.095131375 0.072532356 0.036034945 -0.08632195 0.10391029 -0.10371438 -0.01878281 -0.09326176
-0.11164368 -0.122149594 0.035944145 0.02257121 -0.0049802177 -0.0008567661 -0.033075392 -0.071933895
-0.10859371 -0.046123955 0.031899404 0.053476762 0.08680099 -0.11608324 -0.041756995 0.05446757
0.08608415 0.017599417 0.108272515 0.04034392 0.06768144 0.045776755 0.030566612 0.102997184
-0.059526794 0.11302312 -0.0961877 0.036665566 -0.06429412 -0.01623729 -0.07465828 0.09824491
0.12515754 -0.051475566 -0.012286065 -0.09526832 0.12173127 0.029122481 -0.063661166 -0.06822922
