series_temporales_maxi/trabajo_final/src/best_model_params.pth (torch, 581066 bytes, 20 tensors)

cnn.0.weight f4 [8, 1, 3, 3]
0.03162717 -0.018803323 0.29648465 0.047183592 0.28746828 -0.22416048 -0.100238234 0.14223513
0.14451896 -0.051871795 -0.17571136 -0.066550836 0.2609905 -0.33240697 -0.0121390065 -0.1627539
0.21125232 0.15506028 0.14613336 0.1921665 0.16788824 -0.09665234 0.20939034 0.15706669
-0.122275025 -0.096366875 0.32086763 0.21473926 -0.1312667 -0.0065211896 -0.27018026 -0.22701189
0.10921264 0.05646985 -0.05597789 0.25859925 0.2828463 -0.21944308 0.0071283677 0.026967729
0.12816967 -0.034121808 0.25427923 0.21782984 0.30392426 -0.06266672 0.08299654 0.23218276
-0.04187126 -0.29045853 0.008184986 -0.109968595 -0.23821859 0.30680752 -0.1291317 0.21958315
-0.0872043 0.00202994 0.0053832014 0.039000604 -0.20999524 -0.28456292 0.32664308 -0.22865681
0.06684931 0.13504976 0.11088371 -0.22394603 0.11521561 -0.2075768 0.096355446 0.058745112
00000000: 7e8b 013d 6d09 9abc d6cc 973e 9543 413d
00000010: 0b2f 933e 538a 65be b449 cdbd 16a6 113e
00000020: c7fc 133e 8577 54bd aeed 33be ce4b 88bd
00000030: 8ca0 853e 3f31 aabe afe2 46bc f5a8 26be
00000040: 8752 583e 1fc8 1e3e fca3 153e 4cc7 443e
00000050: e5ea 2b3e a9f1 c5bd 6c6a 563e 17d6 203e
00000060: 546b fabd ff5b c5bd c348 a43e 9ce4 5b3e
00000070: c76a 06be b4af d5bb 1155 8abe ce75 68be
00000080: e0aa df3d ee4c 673d 1249 65bd 1f67 843e
00000090: 3bd1 903e b0b5 60be 1595 e93b 6deb dc3c
000000a0: e93e 033e 4fc3 0bbd e330 823e c90e 5f3e
000000b0: f69b 9b3e 6957 80bd 17fa a93d 51c1 6d3e
000000c0: 3381 2bbd fbb6 94be 521a 063c 3737 e1bd
000000d0: 93ef 73be e015 9d3e 1a3b 04be 68da 603e
000000e0: 2b98 b2bd be08 053b 9165 b03b 19bf 1f3d
000000f0: fe08 57be 3bb2 91be c33d a73e 0325 6abe
00000100: 4be8 883d 7c4a 0a3e 0017 e33d 1c52 65be
00000110: 29f6 eb3d 038f 54be 0156 c53d b79e 703d

cnn.0.bias f4 [8]
-0.087545335 0.1194772 -0.06390433 0.052171785 0.18301451 0.33720168 0.08295841 -0.1912301
00000000: f84a b3bd 76b0 f43d 46e0 82bd 15b2 553d
00000010: 2868 3b3e b3a5 ac3e 19e6 a93d d3d1 43be

cnn.4.weight f4 [16, 8, 3, 3]
0.13931726 0.03058009 -0.030442165 0.12081226 0.011369704 0.09514954 0.0712681 -0.06495842
-0.082824364 0.028212188 0.011876559 0.041994695 -0.0004957486 -0.14774439 0.017260665 -0.121716015
-0.03311294 0.025654515 0.116904825 -0.036636055 0.10931146 0.060881846 0.12124837 -0.03337828
0.030684356 0.062491648 0.057263926 -0.07036096 -0.05387694 0.06372118 -0.092631035 0.1069254
0.106394775 -0.057678986 0.10908104 0.03365609 -0.048625 -0.01613001 0.10683467 -0.009838788
-0.022498414 -0.11996506 -0.00975574 -0.08163146 -0.021941636 -0.13403705 0.07916917 0.051330183
-0.10309595 -0.056184333 -0.09566681 0.05467745 0.006874804 -0.09762426 -0.016094241 0.07577339
0.049730293 -0.0036627753 0.12554558 0.065335445 0.1255937 -0.071785845 0.03534082 -0.16529128
0.04855914 0.032263637 -0.20447952 0.050541684 -0.017315906 0.03051386 0.029375995 0.03582305
0.017891996 0.04360626 -0.093336694 -0.004040767 -0.025543183 -0.064464144 0.04343827 -0.08497216
0.06378232 0.09797714 0.0917951 -0.030079005 0.11210794 -0.04827243 0.11455324 0.114602044
-0.045250215 0.16247924 0.04155732 -0.064205356 0.045498185 0.10208567 -0.085233286 -0.02617843
0.08474201 0.015771052 -0.10712365 -0.03922801 -0.098114535 0.042776477 0.021637706 -0.07109854
-0.081804715 0.08545951 -0.029420713 0.021685094 -0.028406369 0.030277114 0.037170555 0.0029768618
-0.07004929 -0.11713849 -0.03274791 0.04944644 -0.0014686134 0.08075542 -0.09921445 0.108476885
0.11459768 -0.06494379 -0.06064947 0.0020417566 0.0634293 0.008528518 0.057637155 0.12605132
0.034112256 0.08145725 0.09518208 0.16633396 0.02772894 -0.041380353 0.117446944 0.12937306
-0.0017833456 -0.0804613 0.039252024 -0.037161157 -0.088616885 -0.0734869 -0.030525224 -0.049444057
0.08810089 -0.083068 0.116691716 0.019051189 0.06836886 0.08597574 -0.0288227 0.039334323
-0.10489521 0.030764647 -0.1649054 -0.12140125 -0.06857783 -0.10521089 -0.02771092 -0.15819174
-0.036017504 -0.016111203 0.083737716 -0.10306987 0.026181042 0.10237094 0.091392554 0.0051354887
0.11336133 0.03930638 0.050380353 -0.12103207 -0.12720111 -0.04121065 -0.011174773 -0.025054537
0.08319656 0.10347073 0.034513433 -0.06118915 0.08022958 0.077678785 -0.11511412 0.05553424
-0.03670896 0.026137048 0.031004138 0.029285058 -0.0806896 0.058876116 -0.10386217 0.013933639
0.027655277 -0.030682074 -0.05789664 -0.01179916 -0.14148806 -0.07965114 -0.03659672 -0.014914729
-0.0049329763 0.051716067 -0.10080819 -0.094107985 0.055516515 -0.08211546 -0.10548144 0.017898237
0.018452957 0.045095146 0.012347549 -0.016536428 0.110186376 -0.12136994 -0.08512763 0.10418232
-0.09634179 -0.103602596 0.021406073 -0.05296753 0.11903106 0.027254812 0.08723273 0.007215975
0.031511378 0.07471105 -0.0018327225 -0.013788046 -0.09162232 0.031360317 -0.025095582 -0.03865353
-0.15089594 -0.058534864 0.0015012701 0.018580146 0.039642833 0.10890462 0.06003603 0.11097286
0.072536185 0.0322058 -0.054354705 0.060745034 -0.020075059 -0.003787555 0.054708183 -0.0606356
0.016794274 -0.0849693 -0.03439365 0.07350729 0.103813305 -0.042081706 -0.02650114 0.00619406
00000000: 2fa9 0e3e 1983 fa3c d961 f9bc 6b6c f73d
00000010: ff47 3a3c c3dd c23d 02f5 913d ec08 85bd
00000020: d29f a9bd 3f1d e73c e695 423c a102 2c3d
00000030: 20f5 01ba 4e4a 17be 3d66 8d3c 3f46 f9bd
00000040: 6fa1 07bd 6b29 d23c cc6b ef3d b00f 16bd
00000050: b0de df3d 3e5f 793d 1151 f83d aab7 08bd
00000060: c25d fb3c 3ef7 7f3d 948d 6a3d 6819 90bd
00000070: 11ae 5cbd 4080 823d 57b5 bdbd b4fb da3d
00000080: 81e5 d93d cd40 6cbd e165 df3d f8da 093d
00000090: 022b 47bd 1523 84bc 23cc da3d de32 21bc
000000a0: 984e b8bc 3eb0 f5bd 8ad6 1fbc 652e a7bd
000000b0: f2be b3bc 0241 09be 7223 a23d 993f 523d
000000c0: f823 d3bd 8b21 66bd f6ec c3bd 76f5 5f3d
000000d0: 0946 e13b 3aef c7bd 12d8 83bc 142f 9b3d
000000e0: feb1 4b3d 2c0b 70bb 058f 003e 97ce 853d
000000f0: a39b 003e 7504 93bd 89c1 103d 1e42 29be
00000100: f3e5 463d e026 043d 1463 51be cc04 4f3d
00000110: 16da 8dbc 34f8 f93c eda5 f03c 31bb 123d
00000120: 3c92 923c 7a9c 323d 4f27 bfbd 6968 84bb
00000130: f03f d1bc c705 84bd 54ec 313d e205 aebd
00000140: 4ea0 823d 3da8 c83d 12ff bb3d 3f68 f6bc
00000150: d998 e53d 50b9 45bd e49a ea3d 7ab4 ea3d
00000160: 4a58 39bd f560 263e 0238 2a3d 197e 83bd
00000170: 4e5c 3a3d 4b12 d13d ca8e aebd 2674 d6bc
00000180: 388d ad3d 4b32 813c a563 dbbd 8dad 20bd
00000190: 46f0 c8bd 6336 2f3d 8f41 b13c 1d9c 91bd
000001a0: 3b89 a7bd 6505 af3d b503 f1bc f0a4 b13c
000001b0: 79b4 e8bc b607 f83c 2740 183d 7417 433b
000001c0: 0176 8fbd 4ee6 efbd ac22 06bd 5a88 4a3d
000001d0: 7d7e c0ba 1963 a53d f230 cbbd 2129 de3d
000001e0: 30b2 ea3d 4001 85bd 946b 78bd fece 053b
000001f0: 39e7 813d 32bb 0b3c f014 6c3d 9913 013e
00000200: 4bb9 0b3d 0fd3 a63d d3ee c23d 7353 2a3e
00000210: cd27 e33c 727e 29bd 0688 f03d 5f7a 043e
00000220: 26bf e9ba e5c8 a4bd bbc6 203d 4c36 18bd
00000230: c57c b5bd 4d80 96bd 0910 fabc da85 4abd
00000240: 3d6e b43d 8e1f aabd 11fc ee3d 3d11 9c3c
00000250: f904 8c3d 0c14 b03d 951d ecbc 071d 213d
00000260: 4dd3 d6bd 2406 fc3c f6dc 28be 38a1 f8bd
00000270: 8972 8cbd cf78 d7bd 0302 e3bc 04fd 21be
00000280: 1787 13bd a4fb 83bc ae7e ab3d 4c16 d3bd
00000290: a079 d63c dba7 d13d 052c bb3d 9a47 a83b
000002a0: fc29 e83d baff 203d a15b 4e3d a9df f7bd
000002b0: 0241 02be 80cc 28bd 6516 37bc 2c3f cdbc
000002c0: f562 aa3d 76e8 d33d f55d 0d3d 79a1 7abd
000002d0: 684f a43d 0e16 9f3d f4c0 ebbd df77 633d
000002e0: 225c 16bd 5d1d d63c 64fc fd3c 38e7 ef3c
000002f0: 9740 a5bd 1528 713d b0b5 d4bd eb49 643c
00000300: 528d e23c f958 fbbc 0725 6dbd 4451 41bc
00000310: 3fe2 10be 2320 a3bd 71e6 15bd e85c 74bc
00000320: cea4 a1bb 3ad4 533d 8674 cebd b0bb c0bd
00000330: 4965 633d 262c a8bd a706 d8bd 539f 923c
00000340: a82a 973c b0b5 383d 604d 4a3c 6777 87bc
00000350: 65a9 e13d ce90 f8bd 6557 aebd 8a5d d53d
00000360: d84e c5bd 992d d4bd ca5b af3c 7bf4 58bd
00000370: 8ec6 f33d 7c45 df3c 13a7 b23d fc73 ec3b
00000380: 1312 013d 1b02 993d f637 f0ba 42e7 61bc
00000390: 7ca4 bbbd ad73 003d 4095 cdbc 2a53 1ebd
000003a0: 7784 1abe 41c2 6fbd 44c6 c43a 6435 983c
000003b0: 8660 223d 6309 df3d 57e8 753d bd45 e33d
000003c0: da8d 943d 3bea 033d 0aa3 5ebd c9cf 783d
000003d0: 7374 a4bc a138 78bb b015 603d 095d 78bd
000003e0: 2594 893c 6204 aebd 5be0 0cbd fd8a 963d
000003f0: 129c d43d de5d 2cbd eb18 d9bc 8bf7 ca3b

cnn.4.bias f4 [16]
-0.019886479 0.08295486 -0.06323944 -0.13288009 0.032454804 -0.112972364 -0.08949452 0.023039607
-0.061384685 -0.094137646 0.02151441 0.033671193 -0.066327415 -0.12664844 0.013835254 -0.035473302
00000000: f8e8 a2bc 3de4 a93d ae83 81bd b811 08be
00000010: 54ef 043d 0e5e e7bd e748 b7bd 8fbd bc3c
00000020: 826e 7bbd 3dcb c0bd fd3e b03c ceea 093d
00000030: abd6 87bd 21b0 01be 43ad 623c 744c 11bd

cnn.9.weight f4 [10, 5600]
-0.0051930808 0.0042108423 -0.024646942 0.0011378413 -0.013734356 -0.024070524 0.004899001 -0.017309932
-0.009202697 0.0079334 0.02196239 0.012316899 -0.0063337544 0.013204 0.0022650245 -0.0123114735
-0.0052178726 0.0057914066 0.0075314017 -0.00047048862 0.0012748343 0.023798222 0.02586965 0.0027632306
0.037336454 0.036414534 0.019690072 0.033944324 0.05326896 0.029194176 0.029016035 0.055928696
0.03741375 0.014486809 0.018387444 0.0096259 -0.015599634 0.010862218 0.00040880335 -0.003948724
-0.0037292351 -0.022193104 -0.012247699 -0.040126458 -0.02808545 -0.028247999 -0.05147533 -0.050311573
-0.037648123 -0.018840455 -0.010540491 0.004821523 -0.002418336 -0.0036783193 -0.03047572 -0.010796807
-0.017368557 -0.011049898 -0.01120105 -0.0025023902 0.024733936 -0.020804996 0.009527752 0.024856836
0.014301756 0.010626359 0.011088202 0.0028030644 -0.017098809 0.008785257 0.0063932454 0.020089002
-0.006733784 0.014419007 0.0052225194 0.03837089 0.014045126 0.04111534 0.024314182 0.03936382
0.008894577 0.0410498 0.05648629 0.047936592 0.035511836 0.025994748 0.01875186 0.0036385392
0.0028561081 0.015245666 -0.0020707326 -0.0046037994 -0.06520616 -0.05477807 -0.06716378 -0.08036658
-0.060566526 -0.054764416 -0.05566328 -0.036042523 -0.01666148 -0.010441931 -0.008804486 -0.016827745
-0.033936072 -0.026734393 -0.029861255 -0.011676329 -0.011996603 0.025927017 0.008909901 0.0017644576
0.019273626 0.02331902 0.021305144 0.018835172 -0.0039625643 -0.010888204 -0.014362313 -0.0013593172
-0.017865887 -0.014875076 -0.0012593557 0.024715206 0.022898028 0.028863043 0.03067872 0.024832962
0.04867745 0.04861924 0.026373439 0.040181622 0.03661146 0.01384761 0.040017452 0.0069818893
0.015593722 0.025074063 0.023191493 0.022508135 0.005337266 -0.03660802 -0.052315433 -0.071091555
-0.076467864 -0.07882687 -0.055403754 -0.07323774 -0.039631523 -0.041987397 -0.019807698 -0.017287636
-0.004372572 -0.009230405 -0.01587896 -0.028796865 -0.014711063 -0.005905455 -0.004939124 -0.0063090115
0.018604737 0.014490816 4.0914718e-05 0.0068739587 0.014573966 0.01683448 0.007579573 0.024633164
-0.0036756513 0.020763932 0.0010848909 0.033246536 0.02499434 0.017045476 0.03864642 0.04921004
0.031573772 0.03681205 0.058140583 0.050177556 0.03816245 0.046490993 0.056194693 0.05245225
0.044496316 0.02114093 0.015137065 0.041742712 0.0072408393 -0.0002679656 0.018972164 -0.013476765
-0.046091948 -0.03947704 -0.034510817 -0.051210567 -0.031621255 -0.025723534 -0.015745936 -0.019724427
-0.01020984 -0.021656225 -0.016205642 -0.01855014 -0.022944685 -0.020212015 -0.03312204 -0.016937653
-0.020240445 -0.00402854 0.012626774 0.0060227094 -0.011101664 0.02170406 0.018438272 0.015539001
-0.0029936435 -0.008923542 -0.009014972 -0.0081291 -0.0160607 0.0010505627 0.0075297244 0.014162856
0.015464695 0.012043462 0.045984667 0.041481853 0.03097556 0.028361784 0.0098932935 0.025181316
0.036264915 0.02053339 0.016957551 0.003656477 0.013556282 -0.010832383 -0.01780929 -0.0015030788
-0.037661575 -0.02593983 -0.081357956 -0.101106964 -0.08834798 -0.11173935 -0.10943591 -0.09958516
-0.095728874 -0.09334635 -0.004862915 -0.010293223 -0.017436316 -0.0020783383 -0.012565237 -0.019306883
00000000: b82a aabb 1bfb 893b 62e8 c9bc 9e23 953a
00000010: 1006 61bc 8c2f c5bc cd87 a03b 8fcd 8dbc
00000020: e9c6 16bc 17fb 013c 78ea b33c d2cc 493c
00000030: 628b cfbb 9755 583c ce70 143b 10b6 49bc
00000040: b0fa aabb d7c5 bd3b fac9 f63b eaab f6b9
00000050: 5718 a73a 7df4 c23c 97ec d33c 5117 353b
00000060: 1cee 183d 6827 153d 134d a13c 3409 0b3d
00000070: 8e30 5a3d a028 ef3c 09b3 ed3c 7d15 653d
00000080: 293f 193d 155a 6d3c 44a1 963c f3b5 1d3c
00000090: 9b95 7fbc 72f7 313c a854 d639 4c64 81bb
000000a0: 2f66 74bb 50ce b5bc 93aa 48bc a45b 24bd
000000b0: 7513 e6bc 5968 e7bc ccd7 52bd 8213 4ebd
000000c0: eb34 1abd 4c57 9abc 06b2 2cbc defd 9d3b
000000d0: f27c 1ebb f50f 71bb 38a8 f9bc 17e5 30bc
000000e0: 8148 8ebc a20a 35bc 9c84 37bc 24ff 23bb
000000f0: d39e ca3c 3d6f aabc 4a1a 1c3c 90a0 cb3c
00000100: ea51 6a3c 2e1a 2e3c 4aab 353c 9eb3 373b
00000110: cd12 8cbc 0af0 0f3c 6e7e d13b b191 a43c
00000120: 13a7 dcbb b33d 6c3c ab21 ab3b cb2a 1d3d
00000130: 871d 663c 8f68 283d 892e c73c f53b 213d
00000140: 8fba 113c d623 283d 2b5e 673d 2959 443d
00000150: dc74 113d f0f2 d43c 809d 993c 8f74 6e3b
00000160: 8b2d 3b3b f5c8 793c 21b5 07bb 78db 96bb
00000170: cf8a 85bd f85e 60bd 2a8d 89bd 3c97 a4bd
00000180: 9b14 78bd a750 60bd 2eff 63bd 53a1 13bd
00000190: a87d 88bc a214 2bbc b140 10bc 57da 89bc
000001a0: 8d00 0bbd 1602 dbbc 979f f4bc 134e 3fbc
000001b0: 668d 44bc e564 d43c d5fa 113c 5f45 e73a
000001c0: b9e3 9d3c 8807 bf3c 2088 ae3c 384c 9a3c
000001d0: 66d8 81bb 7064 32bc e84f 6bbc 1e2b b2ba
000001e0: 7b5b 92bc 97b6 73bc f710 a5ba 8b77 ca3c
000001f0: a594 bb3c 3072 ec3c f051 fb3c 7f6e cb3c
00000200: 0162 473d f824 473d 1c0d d83c 7c95 243d
00000210: e6f5 153d 16e1 623c 57e9 233d 55c8 e43b
00000220: d07c 7f3c 1f68 cd3c 16fc bd3c fb62 b83c
00000230: 3be4 ae3b 4bf2 15bd b548 56bd 7398 91bd
00000240: 2f9b 9cbd fb6f a1bd 0cef 62bd abfd 95bd
00000250: aa54 22bd fafa 2bbd c143 a2bc cd9e 8dbc
00000260: cb47 8fbb 203b 17bc 9814 82bc 67e7 ebbc
00000270: ac06 71bc 8c82 c1bb 60d8 a1bb d3bb cebb
00000280: f668 983c e36a 6d3c d89b 2b38 f23e e13b
00000290: a5c7 6e3c 77e8 893c 115e f83b 7dcb c93c
000002a0: 32e3 70bb 1f19 aa3c e632 8e3a 852d 083d
000002b0: eec0 cc3c f4a2 8b3c b54b 1e3d 7890 493d
000002c0: 8053 013d 3bc8 163d d224 6e3d fb86 4d3d
000002d0: 3b50 1c3d 576d 3e3d 682c 663d 2cd8 563d
000002e0: c541 363d be2f ad3c 7401 783c 68fa 2a3d
000002f0: 9044 ed3b bc7d 8cb9 836b 9b3c a6cd 5cbc
00000300: e9ca 3cbd adb2 21bd 375b 0dbd 2cc2 51bd
00000310: 4a85 01bd 29ba d2bc 9ffd 80bc 1f95 a1bc
00000320: 2c47 27bc 6568 b1bc b2c1 84bc 77f6 97bc
00000330: 7ef6 bbbc ab93 a5bc faaa 07bd d5c0 8abc
00000340: 4acf a5bc d801 84bb 87e0 4e3c 265a c53b
00000350: c1e3 35bc b6cc b13c dc0b 973c 4b97 7e3c
00000360: 0131 44bb 0c34 12bc 88b3 13bc eb2f 05bc
00000370: bb91 83bc 09b3 893a e8bb f63b 530b 683c
00000380: a25f 7d3c f151 453c 6b5a 3c3d e0e8 293d
00000390: 75c0 fd3c f956 e83c 7b17 223c 0c49 ce3c
000003a0: 858a 143d a435 a83c 90ea 8a3c 81a1 6f3b
000003b0: 2b1b 5e3c 4f7a 31bc cae4 91bc f502 c5ba
000003c0: 0643 1abd c47f d4bc 009f a6bd 2b11 cfbd
000003d0: c9ef b4bd 9ad7 e4bd ef1f e0bd 4ef3 cbbd
000003e0: 800d c4bd 5f2c bfbd 1659 9fbb e8a4 28bc
000003f0: 9bd6 8ebc bb34 08bb 6cde 4dbc 7829 9ebc

cnn.9.bias f4 [10]
-0.0073563727 -0.009499096 -0.0051568043 -0.002413674 0.0020651189 0.0050701704 -0.008812507 -0.026065184
-0.00338537 -0.022902068
00000000: ba0d f1bb 19a2 1bbc 69fa a8bb bb2e 1ebb
00000010: f256 073b ac23 a63b 5562 10bc a786 d5bc
00000020: 15dd 5dbb 1e9d bbbc

lstm.weight_ih_l0 f4 [256, 10]
0.06487914 -0.09199191 0.064832546 0.025082016 0.07462505 0.0062710634 -0.04483715 0.11173197
-0.0018200441 -0.0025518872 -0.014061484 -0.014587073 0.07313294 0.06271089 0.014213128 0.09286087
0.06284596 0.05263861 -0.080841415 0.08609721 0.031429816 0.0691982 0.019666202 0.036112227
0.06946509 -0.09166088 0.04259166 0.019811261 0.13496758 0.07229534 -0.07172184 -0.025679039
-0.059667278 0.040239856 0.058776245 -0.066759065 -0.116030365 0.049323093 0.004692461 -0.049109876
0.0076036635 0.07327414 0.071097 -0.11756497 -0.026091622 -0.0026049446 0.12220887 0.11131038
0.1520659 -0.11019953 -0.03151404 0.13888523 0.018815206 -0.10953261 -0.14198418 0.07719686
-0.039790418 -0.017668486 0.0038501134 0.031096097 -0.019694762 0.009472098 0.040171757 -0.031200262
-0.11210426 0.036093745 0.015222548 -0.09478981 -0.039649345 0.029632987 -0.07479698 0.032538954
0.13780138 0.07242727 -0.10993659 0.037589684 0.02217858 -0.0974249 -0.0642872 0.08185808
-0.065304 0.033466358 0.13010018 0.078177735 -0.061637636 0.019874036 0.016668897 0.106953226
-0.018682757 0.07388203 -0.08975037 0.03402891 -0.037868474 -0.010088374 1.88523e-05 -0.05594636
0.09760762 -0.0553509 0.122219644 0.02221007 0.06754984 0.11946963 0.060506254 -0.06751496
0.099076174 0.04905704 0.016213557 -0.058057718 -0.049444504 0.104814984 0.036938407 0.117465466
0.10703908 -0.009428516 -0.10012413 0.13724358 0.034547042 0.006986804 -0.043046594 -0.0727871
-0.021115992 -0.102270655 0.101304546 -0.1157143 -0.033079773 -0.10148383 0.11611893 0.032128897
-0.0061694016 -0.02121376 -0.0032694654 -0.010594527 -0.08758758 -0.078331545 0.023120396 0.10675642
0.016288783 0.01599503 0.09726491 0.038097497 -0.030244486 -0.027693752 -0.050939288 -0.0885406
-0.015902737 0.032591414 -0.045783345 -0.099193245 0.10725798 -0.13210623 0.02657396 0.040129613
0.058247875 -0.023212394 0.12534639 0.010193049 0.115196526 0.08472183 0.111569524 -0.035991125
0.104673885 0.059834864 -0.053740982 -0.057829708 0.106543645 0.02606243 0.087575674 0.023753993
0.02098701 -0.05793866 -0.0219022 0.071107686 -0.04698053 -0.014275852 0.06620756 0.010137685
-0.06036353 0.031948555 -0.0077134585 0.05934842 0.017658362 0.009020706 0.061823756 -0.052793827
-0.08856706 -0.10316352 0.12352683 -0.16910848 -0.044083573 -0.03954178 0.12256635 0.086782545
0.07119272 -0.123775885 -0.14842454 -0.08722114 -0.03353892 0.12927565 -0.04089574 0.10954104
0.04879397 0.06086051 0.13991402 0.096914284 -0.115740396 -0.10354375 -0.0981194 -0.034661483
0.13852105 0.075963154 -0.110700995 -0.12341926 0.028677247 0.1008811 0.0038515877 0.047504123
-0.07158648 -0.09956716 -0.11534358 0.008321938 0.080578595 0.07217061 0.0010670384 0.006364501
0.009352587 0.15292157 -0.0096822055 -0.018470848 0.10579771 0.092361204 -0.04798621 -0.028809505
0.043481495 -0.10566615 -0.07130028 -0.1017816 0.090280384 -0.018681793 -0.06339492 -0.084383704
0.033615094 0.03252506 0.111049995 -0.08329085 -0.1292764 -0.062239945 0.022596851 0.103845514
0.06416786 0.05777419 0.036246713 0.13565107 0.055176724 -0.08602933 0.061762743 0.13705131
00000000: 5bdf 843d 4166 bcbd edc6 843d cd78 cd3c
00000010: 05d5 983d 7e7d cd3b 29a7 37bd bbd3 e43d
00000020: 8c8e eeba 903d 27bb 2362 66bc 9efe 6ebc
00000030: b9c6 953d 916e 803d 2ede 683c d72d be3d
00000040: 62b5 803d 959b 573d 2f90 a5bd bc53 b03d
00000050: 8dbc 003d c9b7 8d3d 041b a13c 6aea 133d
00000060: b743 8e3d b3b8 bbbd 9874 2e3d 3a4b a23c
00000070: f134 0a3e 940f 943d e6e2 92bd d95c d2bc
00000080: ad65 74bd 8cd2 243d 5cbf 703d fab8 88bd
00000090: 54a1 edbd 0307 4a3d 37c3 993b 7027 49bd
000000a0: 2728 f93b c110 963d 4e9b 913d e7c5 f0bd
000000b0: 19be d5bc b8b7 2abb a548 fa3d b2f6 e33d
000000c0: 2ab7 1b3e 4bb0 e1bd de14 01bd ee37 0e3e
000000d0: 5922 9a3c a252 e0bd 4d64 11be 6319 9e3d
000000e0: 47fb 22bd 80bd 90bc 2f52 7c3b 3ebd fe3c
000000f0: e956 a1bc dc30 1b3c 248b 243d b197 ffbc
00000100: eb96 e5bd 09d7 133d fe67 793c 2921 c2bd
00000110: 5a67 22bd e1c0 f23c 292f 99bd 9147 053d
00000120: ce1b 0d3e c054 943d 6f26 e1bd a4f7 193d
00000130: daaf b53c b586 c7bd 02a9 83bd 36a5 a73d
00000140: 1bbe 85bd 0514 093d fb38 053e a61b a03d
00000150: bf77 7cbd e0ce a23c 368d 883c 4b0a db3d
00000160: 950c 99bc 764f 973d 0bcf b7bd e661 0b3d
00000170: f91b 1bbd b549 25bc 0225 9e37 0328 65bd
00000180: 81e6 c73d a0b7 62bd 4b4e fa3d e5f1 b53c
00000190: 9257 8a3d 7eac f43d 68d5 773d 4945 8abd
000001a0: 73e8 ca3d 09f0 483d 4bd2 843c eecd 6dbd
000001b0: 5286 4abd 3da9 d63d ba4c 173d bc91 f03d
000001c0: 4e37 db3d 107a 1abc e10d cdbd 9589 0c3e
000001d0: 3381 0d3d 8ff1 e43b a051 30bd 6711 95bd
000001e0: 72fb acbc 4773 d1bd c278 cf3d 9efb ecbd
000001f0: a87e 07bd c1d6 cfbd c3cf ed3d 9799 033d
00000200: b128 cabb 7bc8 adbc 8744 56bb ab94 2dbc
00000210: 1e61 b3bd 4a6c a0bd fc66 bd3c 1ca3 da3d
00000220: 0e70 853c 0208 833c d332 c73d 1f0c 1c3d
00000230: 49c3 f7bc 02de e2bc b7a5 50bd c654 b5bd
00000240: 7546 82bc 937e 053d 5187 3bbd d425 cbbd
00000250: 12aa db3d db46 07be a2b1 d93c f35e 243d
00000260: 5395 6e3d eb27 bebc ce5a 003e bf00 273c
00000270: 28ec eb3d a482 ad3d 907e e43d 6e6b 13bd
00000280: 435f d63d 6715 753d 811f 5cbd d8de 6cbd
00000290: 8e33 da3d e180 d53c e05a b33d bc97 c23c
000002a0: f3ec ab3c 1751 6dbd 3e6c b3bc e8a0 913d
000002b0: a86e 40bd 43e5 69bc d497 873d 8818 263c
000002c0: c03f 77bd 7ddc 023d 2ec1 fcbb 5417 733d
000002d0: 45a8 903c 95cb 133c e83a 7d3d 573e 58bd
000002e0: a662 b5bd 6547 d3bd a2fb fc3d c62a 2dbe
000002f0: fa90 34bd 90f6 21bd 1104 fb3d 0cbb b13d
00000300: 7dcd 913d 367e fdbd 9afc 17be ffa0 b2bd
00000310: 1b60 09bd d660 043e 4b82 27bd 0e57 e03d
00000320: 30dc 473d df48 793d 9f45 0f3e ff7a c63d
00000330: 4d09 edbd bf0e d4bd d3f2 c8bd 33f9 0dbd
00000340: 76d8 0d3e 9292 9b3d 34b7 e2bd 3dc3 fcbd
00000350: 8cec ea3c c09a ce3d eb6a 7c3b af93 423d
00000360: ef9b 92bd dee9 cbbd 4139 ecbd bd58 083c
00000370: 6406 a53d 2fce 933d dedb 8b3a 4e8d d03b
00000380: 983b 193c 7997 1c3e 1da2 1ebc 2d50 97bc
00000390: 78ac d83d df27 bd3d 308d 44bd e901 ecbc
000003a0: a719 323d 7f67 d8bd e205 92bd df72 d0bd
000003b0: ece4 b83d 8f0a 99bc 32d5 81bd 5dd1 acbd
000003c0: fbaf 093d ff38 053d 2e6e e33d 6594 aabd
000003d0: 0861 04be 50ef 7ebd 081d b93c f5ac d43d
000003e0: 706a 833d a1a4 6c3d 6f77 143d 1de8 0a3e
000003f0: fd00 623d 2530 b0bd eefa 7c3d 2e57 0c3e

lstm.weight_hh_l0 f4 [256, 64]
0.047267213 -0.0107442895 0.08022585 -0.09569722 -0.12833919 0.08436967 0.08782199 0.029126726
-0.0074209417 -0.08206098 0.10429722 -0.078830965 -0.13642862 0.11154857 0.041433588 0.0567503
0.048000816 -0.066128336 0.0641322 -0.11475564 0.06756621 0.033700887 -0.039599724 0.13853018
-0.12074138 -0.11255433 -0.16106927 0.094363995 0.13531245 0.05305556 0.057336167 -0.08105485
-0.14432077 -0.0881697 -0.08952239 -0.049960844 0.061986674 -0.1114251 -0.09595253 0.092909455
0.05507366 0.09926209 -0.018041147 -0.00913456 -0.06023064 0.063210845 -0.0033789403 0.010984941
0.07222704 -0.026495678 -0.020564385 0.014802995 -0.031883787 0.073818535 0.0242197 -0.13235262
0.040274277 -0.07294215 0.015870322 -0.07755875 0.084113464 -0.040613774 -0.09429248 0.07860607
0.0043319496 -0.13385077 0.07025531 0.06539674 0.067396685 -0.10561855 -0.010847142 0.051550798
0.036261097 -0.08621781 0.023717694 0.042070925 -0.02401392 0.110671036 0.083887406 0.08938855
0.098731466 0.10094433 -0.028734641 -0.103884384 -0.08165402 -0.020540353 -0.072378024 0.05303352
0.040090732 0.017686877 -0.15830117 0.02644047 -0.051903747 0.10511095 0.001906711 0.021822525
-0.025487062 0.015880216 0.09188582 0.08562715 -0.12506965 0.089348026 -0.11775848 0.02002444
0.022475824 0.068654604 0.07247628 2.662556e-05 0.095472224 -0.0540852 0.105068214 -0.0036557226
-0.05709838 0.043779794 -0.025553975 -0.042288825 -0.12794532 -0.0687797 0.0016025737 0.052314363
-0.005253526 -0.091013215 0.004396647 0.15027197 -0.030385325 0.0019026919 0.018354319 0.020531338
-0.13945939 -0.027105626 0.022099923 0.015921127 0.04841961 0.07125078 0.102884926 -0.15371807
-0.014344181 -0.08443749 0.060585786 0.07133664 -0.04164274 0.099196814 -0.036520876 -0.041898295
0.045305043 0.06710106 0.048538018 -0.08923188 -0.052496634 0.089375935 -0.07797577 -0.010458315
0.011103192 -0.03512661 0.04226309 0.02934896 0.070465595 0.16340165 0.09461312 -0.11623699
-0.08501739 0.037959915 -0.047801223 -0.16576956 0.019083126 0.040796895 0.08148637 0.13263477
-0.04573873 -0.028989919 0.16187316 -0.03209353 0.0060995 0.07557571 0.051210426 -0.019040927
-0.005493814 -0.07120686 -0.047988232 0.11095299 -0.01895836 0.101563714 0.09205744 -0.10888485
0.0210242 -0.12564084 0.12511238 -0.09993079 0.005092165 0.103864715 -0.025979187 -0.046340767
0.059102666 -0.03972244 -0.0012749616 -0.04898774 -0.07891218 -0.062725134 0.075507365 -0.060240403
-0.14131585 0.08494983 0.12405971 -0.0894466 0.010228587 -0.07605476 0.03533564 -0.07125466
-0.0282482 -0.07426146 0.002383247 -0.026419489 -0.048174296 0.12971395 0.0036924037 0.037816495
0.04833038 0.015122856 -0.06608905 -0.10464939 -0.055046733 -0.104315184 -0.085754655 0.03491816
-0.12217455 -0.08258394 0.08498707 -0.058660295 0.056364164 -0.09578033 0.10821246 -0.073599264
-0.041540112 0.029009033 -0.0028115313 -0.13856454 -0.11063636 -0.05502807 -0.14175984 0.004840316
-0.039305344 -0.08173911 -0.12284611 0.047405478 0.06040647 -0.013571246 0.009958589 -0.00868089
0.09085337 0.10059259 0.1287488 0.059319437 0.035150606 0.0049382905 -0.1216874 -0.07935903
00000000: 449b 413d d108 30bc 734d a43d e7fc c3bd
00000010: 596b 03be 01ca ac3d 04dc b33d 2c9b ee3c
00000020: 5f2b f3bb 960f a8bd c899 d53d 2172 a1bd
00000030: f2b3 0bbe 9473 e43d 44b6 293d 0173 683d
00000040: 819c 443d 4b6e 87bd be57 833d 0105 ebbd
00000050: 2760 8a3d f109 0a3d 5233 22bd dbda 0d3e
00000060: 4247 f7bd e282 e6bd 58ef 24be e941 c13d
00000070: 598f 0a3e c950 593d 54d9 6a3d 1600 a6bd
00000080: d3c8 13be 5192 b4bd 8457 b7bd bea3 4cbd
00000090: bde5 7d3d d832 e4bd c382 c4bd 5047 be3d
000000a0: eb94 613d ec49 cb3d 07cb 93bc 1fa9 15bc
000000b0: 67b4 76bd b074 813d 3671 5dbb 2ffa 333c
000000c0: c5eb 933d 770d d9bc a476 a8bc 4388 723c
000000d0: 9398 02bd 2c2e 973d 6468 c63c 7287 07be
000000e0: a4f6 243d b262 95bd 7a02 823c 1fd7 9ebd
000000f0: ae43 ac3d a15a 26bd 6a1c c1bd 38fc a03d
00000100: 07f3 8d3b 2d10 09be 04e2 8f3d baee 853d
00000110: 4607 8a3d 8a4e d8bd 36b8 31bc ee26 533d
00000120: 8486 143d f792 b0bd 9c4b c23c 9052 2c3d
00000130: d7b8 c4bc 7fa7 e23d 29cd ab3d 5811 b73d
00000140: b933 ca3d e7bb ce3d e964 ebbc 56c1 d4bd
00000150: 393a a7bd 3e44 a8bc ee3a 94bd ad39 593d
00000160: 2e36 243d 12e4 903c b419 22be af99 d83c
00000170: 0699 54bd 6944 d73d 9bea f93a 27c5 b23c
00000180: 3eca d0bc 3a17 823c a22e bc3d 4a5d af3d
00000190: 4212 00be 19fc b63d 5c2b f1bd 4b0a a43c
000001a0: 381f b83c c99a 8c3d 726e 943d f459 df37
000001b0: f186 c33d 7188 5dbd 012e d73d d994 6fbb
000001c0: fedf 69bd 7152 333d 9256 d1bc 0c37 2dbd
000001d0: 1904 03be 5fdc 8cbd 730d d23a 9647 563d
000001e0: c525 acbb 2365 babd c011 903b e5e0 193e
000001f0: a5ea f8bc bf63 f93a cc5b 963c 5631 a83c
00000200: 71ce 0ebe 9e0c debc e60a b53c 066d 823c
00000210: a453 463d eeeb 913d 55b5 d23d 4568 1dbe
00000220: db03 6bbc 90ed acbd cd28 783d f218 923d
00000230: 9491 2abd b327 cb3d ea96 15bd 8c9d 2bbd
00000240: c891 393d 486c 893d cdcf 463d 34bf b6bd
00000250: b606 57bd bb0a b73d c3b1 9fbd 5a59 2bbc
00000260: 2aea 353c ece0 0fbd 101c 2d3d 3b6d f03c
00000270: 4450 903d c352 273e 86c4 c13d a90d eebd
00000280: 991d aebd db7b 1b3d 37cb 43bd 7fbf 29be
00000290: 3754 9c3c a51a 273d 53e2 a63d 69d1 073e
000002a0: 8958 3bbd 447c edbc 14c2 253e 8174 03bd
000002b0: 51de c73b 70c7 9a3d 06c2 513d b8fb 9bbc
000002c0: 7405 b4bb e7d4 91bd 4f8f 44bd 523b e33d
000002d0: 904e 9bbc a300 d03d 9c88 bc3d 05ff debd
000002e0: f13a ac3c fea7 00be 761d 003e 84a8 ccbd
000002f0: 2ddc a63b 06b7 d43d 4ed2 d4bc d1cf 3dbd
00000300: a315 723d ffb3 22bd 9d1c a7ba 5ea7 48bd
00000310: b69c a1bd 0976 80bd 9ba3 9a3d a4be 76bd
00000320: 1ab5 10be 2dfa ad3d 0413 fe3d c72f b7bd
00000330: ce95 273c 99c2 9bbd 1bbc 103d f7ed 91bd
00000340: c568 e7bc 6416 98bd 4030 1c3b af6d d8bc
00000350: 6952 45bd bcd3 043e 41fc 713b 78e5 1a3d
00000360: 14f6 453d dbc5 773c b259 87bd 6b52 d6bd
00000370: af78 61bd 33a3 d5bd 23a0 afbd 5806 0f3d
00000380: a736 fabd c521 a9bd b30d ae3d c745 70bd
00000390: 1cde 663d 7a28 c4bd 7f9e dd3d 36bb 96bd
000003a0: f725 2abd 5aa4 ed3c ab41 38bb dde3 0dbe
000003b0: 5195 e2bd 1d65 61bd 7e29 11be 839b 9e3b
000003c0: a4fe 20bd d666 a7bd be96 fbbd 3f2c 423d
000003d0: c66c 773d ee59 5ebc 5a29 233c 4b3a 0ebc
000003e0: 5511 ba3d 7d03 ce3d bad6 033e f0f8 723d
000003f0: 15fa 0f3d 62d1 a13b 3e37 f9bd fd86 a2bd

lstm.bias_ih_l0 f4 [256]
0.050400767 0.046470836 -0.006068701 0.040957488 0.15778239 0.10934908 0.08986565 0.120208174
0.018802712 0.12938416 -0.06155283 -0.087065905 -0.10136934 -0.057688497 -0.042528834 0.05581503
-0.022196079 0.08670206 -0.10212516 -0.031055301 0.12508191 -0.0429596 -0.08035473 -0.028993072
0.13072576 0.08763587 0.11032816 -0.022037895 0.15783133 0.06003445 0.13934918 -0.045158133
-0.08134877 0.10466266 -0.06521007 -0.072158165 0.10013196 0.13766211 -0.07673721 0.06969909
0.110450305 -0.0011505242 0.05950161 0.18446955 -0.10036235 -0.08199285 0.10920697 -0.029468961
-0.09706109 0.10329645 0.07666775 -0.124214396 -0.03893445 -0.048462443 0.13457218 0.111868694
-0.028806759 0.05460443 0.03280469 -0.024412293 0.13343138 -0.046356447 0.10574631 0.039995875
-0.04592111 0.020908 0.13127834 -0.07023723 -0.032754157 -0.08903335 -0.022269245 -0.02058337
-0.05265656 -0.068695545 -0.04014608 -0.026110426 -0.02600187 0.07037778 -0.05472751 0.036848936
0.13661453 -0.01994953 0.12775534 0.1081349 0.03762055 -0.062866114 -0.07378655 0.035786655
0.12387104 -0.06636208 0.09834248 0.07150117 0.057668496 -0.040186495 0.11020989 -0.030645644
-0.040452093 -0.05170376 0.024133967 -0.04378105 0.10277505 0.12242278 0.060087897 -0.10461706
-0.048488 0.013318702 -0.06902904 -0.078034356 0.10005378 0.04505786 0.032330498 -0.03072709
0.02933863 0.072171405 -0.061949637 0.1369421 -0.08891916 0.008819181 0.045743946 0.061164826
0.08457327 -0.019508926 0.044507354 -0.072109245 -0.040240347 0.07496065 0.07849092 0.084159926
0.05283121 0.10766399 -0.09136227 0.05194613 0.038039055 -0.12641925 -0.027302383 -0.08045066
-0.020378126 0.11270751 -0.11167842 0.09347763 -0.121407084 -0.083743244 0.09988587 0.02134546
-0.10056352 -0.042661246 0.0020076972 0.051020876 -0.082571276 -0.0055171596 -0.14453174 -0.00031101232
0.08101741 0.06227367 -0.10174602 0.09970993 -0.0058359653 -0.10589944 -0.1393556 -0.061685655
-0.038837347 0.13831475 -0.065417595 -0.027196715 -0.06847696 0.006706179 -0.123088434 0.003332522
0.021503327 -0.03264689 0.0643193 0.09777355 -0.122503534 -0.078103386 -0.07625159 0.01809476
0.05160776 0.0273242 0.055828124 0.07321381 0.032527983 -0.08387707 -0.12829122 0.094521016
0.0042196373 -0.030310558 0.09534096 0.08034027 0.013930088 -0.009783439 -0.1075907 0.11877713
0.14427808 0.07501616 -0.0696793 -0.03763739 0.076945536 -0.038072273 0.04088069 0.053600352
0.03212151 -0.037981067 -0.09525462 -0.060475264 0.037860297 0.06990037 0.10996565 0.034203324
-0.068060555 -0.0024133718 0.06565139 0.02700194 -0.008094386 -0.093535885 0.052520283 0.0030559301
0.18199271 0.097239725 0.03654449 0.07388499 0.028451426 -0.108987145 0.02318321 -0.07034951
0.07101019 0.07118956 0.0266844 0.067932114 -0.10775712 0.008395338 -0.026787939 0.09449212
-0.099637516 0.07376772 -0.09519787 0.11461665 -0.073880896 0.13893199 0.12983042 0.018557986
0.13364695 -0.06429101 0.087942176 -0.060796212 0.1376536 -0.08447925 0.057329204 -0.028132232
0.051477384 0.10611696 0.066252515 0.0655364 0.089631066 0.045008324 -0.06491945 0.05274406
00000000: 0971 4e3d 3458 3e3d f4db c6bb 0ac3 273d
00000010: b591 213e 69f2 df3d 7b0b b83d b42f f63d
00000020: 2508 9a3c 487d 043e d21e 7cbd 9c4f b2bd
00000030: bb9a cfbd c64a 6cbd b732 2ebd 4d9e 643d
00000040: 8dd4 b5bc da90 b13d ff26 d1bd b067 febc
00000050: 7915 003e 68f6 2fbd 0591 a4bd e182 edbc
00000060: f9dc 053e 6f7a b33d bbf3 e13d d188 b4bc
00000070: 899e 213e afe6 753d 8db1 0e3e bcf7 38bd
00000080: 2f9a a6bd 6059 d63d db8c 85bd a9c7 93bd
00000090: fc11 cd3d 4cf7 0c3e 6628 9dbd 66be 8e3d
000000a0: c533 e23d 30cd 96ba f6b7 733d 96e5 3c3e
000000b0: c78a cdbd deeb a7bd e7a7 df3d e468 f1bc
000000c0: f7c7 c6bd 178d d33d fb03 9d3d 1e64 febd
000000d0: bb79 1fbd 8e80 46bd 4acd 093e 6a1b e53d
000000e0: 27fc ebbc e5a8 5f3d 365e 063d 4afc c7bc
000000f0: 3ca2 083e 42e0 3dbd 8591 d83d b7d2 233d
00000100: c617 3cbd 4147 ab3c d46d 063e 89d8 8fbd
00000110: 3929 06bd 1e57 b6bd fe6d b6bc 759e a8bc
00000120: 68ae 57bd 40b0 8cbd 3770 24bd 88e5 d5bc
00000130: e001 d5bc 3a22 903d f429 60bd e9ee 163d
00000140: aee4 0b3e 326d a3bc 4cd2 023e d575 dd3d
00000150: 0118 1a3d f3bf 80bd 671d 97bd 0795 123d
00000160: 1ab0 fd3d d8e8 87bd c867 c93d 356f 923d
00000170: cd35 6c3d 989a 24bd b9b5 e13d 930c fbbc
00000180: 18b1 25bd 52c7 53bd 99b4 c53c c253 33bd
00000190: ba7b d23d cbb8 fa3d ba1e 763d 7841 d6bd
000001a0: 5a9b 46bd af36 5a3c 195f 8dbd 7ad0 9fbd
000001b0: ffe8 cc3d 978e 383d fc6c 043d 61b7 fbbc
000001c0: 9157 f03c 9ace 933d e7be 7dbd 8d3a 0c3e
000001d0: 401b b6bd 537e 103c 015e 3b3d f887 7a3d
000001e0: c034 ad3d 2fd1 9fbc 584d 363d 03ae 93bd
000001f0: 10d3 24bd f884 993d d9bf a03d 0a5c ac3d
00000200: 8a65 583d f07e dc3d 241c bbbd 77c5 543d
00000210: d7ce 1b3d 0c74 01be 3fa9 dfbc 51c3 a4bd
00000220: 07f0 a6bc 32d3 e63d a8b7 e4bd 3371 bf3d
00000230: 47a4 f8bd 9481 abbd f790 cc3d addc ae3c
00000240: 3ff4 cdbd 8fbd 2ebd 9293 033b 44fb 503d
00000250: 211b a9bd 4ac9 b4bb 2100 14be 5e0f a3b9
00000260: 75ec a53d ad12 7f3d 3860 d0bd b834 cc3d
00000270: a03b bfbb cee1 d8bd 3cb3 0ebe 19aa 7cbd
00000280: e913 1fbd 62a2 0d3e a9f9 85bd a5cb debc
00000290: a63d 8cbd 82bf db3b ca15 fcbd 7166 5a3b
000002a0: bf27 b03c bfb8 05bd d6b9 833d 803d c83d
000002b0: 22e3 fabd abf4 9fbd cb29 9cbd 763b 943c
000002c0: a962 533d 00d7 df3c 08ac 643d 1ff1 953d
000002d0: 103c 053d bec7 abbd c65e 03be 3c94 c13d
000002e0: e244 8a3b d94d f8bc 1f42 c33d 7189 a43d
000002f0: 063b 643c b84a 20bc 8358 dcbd 6d41 f33d
00000300: a2bd 133e 13a2 993d 05b4 8ebd aa29 1abd
00000310: 9f95 9d3d acf1 1bbd 8372 273d 0b8c 5b3d
00000320: d891 033d 0992 1bbd db14 c3bd e9b4 77bd
00000330: 6613 1b3d ed27 8f3d ac35 e13d c918 0c3d
00000340: 5563 8bbd a929 1ebb 3c74 863d 2c33 dd3c
00000350: 519e 04bc be8f bfbd 821f 573d 0046 483b
00000360: 4c5c 3a3e 9f25 c73d adaf 153d 0351 973d
00000370: f712 e93c a734 dfbd b7ea bd3c 6713 90bd
00000380: ca6d 913d d5cb 913d 3e99 da3c fe1f 8b3d
00000390: c4af dcbd 9a8c 093c 6172 dbbc 1685 c13d
000003a0: c10e ccbd 8813 973d 1af7 c2bd 22bc ea3d
000003b0: de4e 97bd 3044 0e3e 44f2 043e eb06 983c
000003c0: bfda 083e 01ab 83bd 071b b43d 7305 79bd
000003d0: 11f5 0c3e 7503 adbd 07d2 6a3d 9175 e6bc
000003e0: f3d9 523d d953 d93d 66af 873d f337 863d
000003f0: 7e90 b73d a65a 383d 7df4 84bd 280a 583d

lstm.bias_hh_l0 f4 [256]
-0.10274403 -0.009848355 0.13034625 -0.0810655 0.008839136 0.070858 0.10122017 0.081308424
0.021028256 0.02511124 0.06652138 -0.10811123 2.227203e-05 -0.02280247 0.0778769 0.050231803
-0.02155711 0.15183204 0.027448611 0.059434835 0.007874287 0.046453804 0.0016565414 -0.08741129
0.030268745 0.0043437877 0.0084855165 0.011884861 0.14137365 -0.07932126 0.03416637 0.015416169
0.09792795 -0.05389008 0.013321774 -0.00705781 -0.0048367996 -0.009198428 0.12146497 -0.068782695
0.12264041 0.0325395 0.026855959 -0.017891364 -0.10233977 -0.02411878 0.091058366 -0.024134438
0.056604493 -0.07241272 0.09206818 0.11588585 -0.047849543 0.03896547 0.17987691 -0.034175597
0.046820287 0.014083138 -0.08599643 0.052637264 -0.1046522 -0.09054586 0.07266331 0.122548774
-0.08342119 0.13434328 0.16253136 0.077917226 0.03642463 0.12284814 -0.038069457 -0.033036735
-0.052729607 0.014979672 0.02147819 0.0002478632 -0.012040805 -0.07746588 0.106668174 0.049825165
-0.010814261 0.07166181 -0.033757053 0.027915325 -0.04788057 0.05569752 -0.022344189 0.077242084
-0.019457798 -0.042036004 0.07929343 -0.036457293 -0.031135865 -0.053132437 -0.09023235 -0.08483463
-0.080631405 -0.055707328 -0.046440315 -0.0059406636 -0.1243829 -0.08375632 0.049137764 -0.049584568
-0.005295872 -0.12521915 0.0015286874 0.0008123795 0.12390826 0.13451654 0.021308202 0.07239217
0.08569983 0.016060522 -0.03763218 0.12427713 0.15701923 -0.06377908 0.059693154 0.009896467
0.020397238 0.020638296 -0.06353693 0.13723716 0.029152006 0.09225392 0.038779173 0.02836577
-0.114857316 -0.037445042 -0.09090403 -0.11637424 0.043126594 -0.123101875 0.12723283 -0.12663625
0.048346307 -0.002172329 0.09076311 0.0022780627 -0.089583 -0.013145917 0.1336079 0.067186974
0.09929896 0.12768973 0.050120078 0.11109594 0.09559905 0.058556754 0.04997651 0.035187233
0.011777941 -0.031064088 -0.016539874 -0.0015627539 -0.07336741 -0.11766596 0.028745057 -0.11940821
0.03250939 0.10980183 0.08140674 -0.10336804 -0.042960204 -0.07118218 0.0143128885 -0.096647605
-0.08959097 -0.073857985 -0.0553093 0.00046295565 -0.012688153 0.04624929 -0.12775257 0.089126304
-0.00917307 0.11839138 -0.11239352 0.029471556 0.046195004 -0.06822722 -0.039537728 0.002983896
0.0050323163 0.10890194 0.06918604 0.071505584 -0.054265298 0.07750906 0.03322138 0.083261736
-0.03905215 0.008758002 0.104681246 0.09754771 0.14820541 0.15593755 -0.0054651625 0.13436985
0.021444496 -0.06386339 0.09860397 0.10143518 0.029293533 0.06241957 0.07643628 -0.027684968
0.074290566 -0.036419883 0.08895475 0.0940115 -0.1021675 0.0721921 -0.016102243 -0.024868436
0.07149237 0.1244658 0.049986623 0.121578194 -0.026983952 0.0040425085 0.08132097 -0.009218596
0.06849368 0.09070846 0.031821124 -0.049210656 0.1180695 -0.033400554 0.04443566 -0.09460263
-0.06835232 0.038234185 0.033563964 -0.020803321 -0.067302346 0.10651757 0.07468621 -0.0075235353
0.13053979 0.0027403855 -0.05123415 -0.09163745 0.051773828 -0.041647922 0.14136367 0.102062434
0.07081818 0.10246507 -0.033509877 0.109060965 0.1085829 0.10356568 0.1423979 0.065129526
00000000: 766b d2bd ff5a 21bc 7d79 053e ab05 a6bd
00000010: 06d2 103c 001e 913d 854c cf3d 0885 a63d
00000020: 7343 ac3c 16b6 cd3c 5c3c 883d 6c69 ddbd
00000030: d2d4 ba37 3fcc babc ed7d 9f3d ddbf 4d3d
00000040: 8998 b0bc dc79 1b3e e9db e03c f171 733d
00000050: 2703 013c 5846 3e3d 4e20 d93a b104 b3bd
00000060: 29f6 f73c 5556 8e3b d606 0b3c b8b8 423c
00000070: 41c4 103e 2f73 a2bd 09f2 0b3d 1994 7c3c
00000080: 738e c83d d8bb 5cbd 9243 5a3c 3445 e7bb
00000090: 047e 9ebb 01b5 16bc a0c2 f83d f1dd 8cbd
000000a0: e52a fb3d 2448 053d 0701 dc3c e990 92bc
000000b0: 8397 d1bd bf94 c5bc cf7c ba3d 96b5 c5bc
000000c0: 1dda 673d 1f4d 94bd 3e8e bc3d 8f55 ed3d
000000d0: e2fd 43bd 429a 1f3d a731 383e b6fb 0bbd
000000e0: a1c6 3f3d f6bc 663c e51e b0bd 2c9a 573d
000000f0: e553 d6bd 1c70 b9bd 80d0 943d dafa fa3d
00000100: bbd8 aabd 4991 093e 9f6e 263e 1193 9f3d
00000110: fe31 153d ce97 fb3d b8ee 1bbd 8751 07bd
00000120: 00fb 57bd 4c6d 753c 07f3 af3c a3f3 8139
00000130: cc46 45bc 6ea6 9ebd d874 da3d 7915 4c3d
00000140: 4c2e 31bc 6dc3 923d d644 0abd aeae e43c
00000150: 6b1e 44bd 1523 643d 290b b7bc 1931 9e3d
00000160: f665 9fbc f22d 2cbd 9864 a23d 3e54 15bd
00000170: a410 ffbc 66a1 59bd bdcb b8bd c7bd adbd
00000180: 1422 a5bd 5e2d 64bd 3338 3ebd e6a9 c2bb
00000190: 76bc febd 6f88 abbd ae44 493d 3019 4bbd
000001a0: ff88 adbb 7339 00be 3d5e c83a def5 543a
000001b0: 9dc3 fd3d b4be 093e 8a8e ae3c 5942 943d
000001c0: 6483 af3d 5b91 833c 3324 1abd 0285 fe3d
000001d0: a6c9 203e 9b9e 82bd cf80 743d cb24 223c
000001e0: 1c18 a73c a511 a93c a61f 82bd e687 0c3e
000001f0: 30d0 ee3c a0ef bc3d e9d6 1e3d 555f e83c
00000200: 503a ebbd f95f 19bd e42b babd 9e55 eebd
00000210: 83a5 303d d61c fcbd 5349 023e efac 01be
00000220: c706 463d a25d 0ebb 02e2 b93d 8d4b 153b
00000230: 4b77 b7bd f961 57bc 82d0 083e 5399 893d
00000240: 415d cb3d 19c1 023e b64a 4d3d 4586 e33d
00000250: 6fc9 c33d 35d9 6f3d 2bb4 4c3d 7d20 103d
00000260: 44f8 403c 1d7a febc a17e 87bc 52d5 ccba
00000270: a741 96bd dafa f0bd c17a eb3c 4b8c f4bd
00000280: 9128 053d c8df e03d 94b8 a63d 9fb2 d3bd
00000290: 0af7 2fbd f6c7 91bd 9b80 6a3c 2eef c5bd
000002a0: 787b b7bd db42 97bd 018c 62bd dbb8 f239
000002b0: f9e1 4fbc e56f 3d3d 92d1 02be da87 b63d
000002c0: a54a 16bc 2e77 f23d 932e e6bd 556e f13c
000002d0: f936 3d3d b6ba 8bbd 50f2 21bd 788d 433b
000002e0: 21e6 a43b fb07 df3d 69b1 8d3d 8571 923d
000002f0: 4a45 5ebd 12bd 9e3d 2413 083d 2185 aa3d
00000300: 26f5 1fbd b97d 0f3c 1f63 d63d 18c7 c73d
00000310: 29c3 173e 18ae 1f3e 1b15 b3bb 4098 093e
00000320: 5eac af3c cfca 82bd e1f0 c93d 3fbd cf3d
00000330: fef8 ef3c aaab 7f3d a08a 9c3d 96cb e2bc
00000340: a725 983d 042d 15bd e82d b63d 1a89 c03d
00000350: 323d d1bd 74d9 933d dae8 83bc e4b8 cbbc
00000360: 976a 923d ede7 fe3d c6be 4c3d fdfd f83d
00000370: 730d ddbc 0577 843b 9c8b a63d 9809 17bc
00000380: 6a46 8c3d 5bc5 b93d de56 023d 1d91 49bd
00000390: 6cce f13d 05cf 08bd 2b02 363d 06bf c1bd
000003a0: 4dfc 8bbd 739b 1c3d 5e7a 093d ba6b aabc
000003b0: d0d5 89bd e225 da3d 15f5 983d fd87 f6bb
000003c0: 39ac 053e 0a98 333b e6da 51bd 6aac bbbd
000003d0: cb10 543d 0397 2abd a3c1 103e 1c06 d13d
000003e0: 1f09 913d 35d9 d13d a741 09bd 5b5b df3d
000003f0: b660 de3d 3e1a d43d c1d0 113e a162 853d

lstm.weight_ih_l1 f4 [256, 64]
-0.12780905 0.015323762 0.011335567 0.019897372 -0.087211676 -0.039274767 -0.020748181 -0.15499976
-0.10612318 0.045147914 0.03173441 -0.020476742 -0.071439385 0.112807974 0.0933138 0.03170903
0.006811643 0.049424198 0.16452919 0.052126355 0.10377883 0.15990753 -0.13306366 0.06074491
-0.013459896 0.047052667 -0.039100032 -0.058452304 -0.01858497 -0.07842941 -0.070672594 -0.06852162
-0.08806886 0.00095496915 -0.062571414 -0.08715341 0.08754165 -0.10041749 -0.08182132 0.0136200385
-0.08885352 0.116258204 -0.008021363 0.048979927 0.13477178 -0.15670171 -0.08992055 0.12732482
0.008629003 0.09630724 -0.026654428 0.11828901 -0.009533213 0.049892396 0.020044545 -0.1443237
-0.11882521 -0.068271905 -0.015250293 0.0066817985 0.12134516 -0.0960412 0.046985142 0.13840638
-0.12018261 0.072370425 -0.07855584 -0.12316997 -0.018050304 -0.08522863 0.040546026 -0.12531862
-0.15541226 0.07501322 0.046479866 -0.14608487 0.08518318 0.102910876 -0.042586755 -0.094213404
0.106970474 -0.14469254 0.121911585 0.08193568 -0.033487923 -0.064745225 -0.058126085 0.12658553
0.00088313775 -0.057215016 0.10618648 -0.14581405 0.17675517 -0.014736657 -0.06272076 -0.1436721
0.030275133 -0.11452143 0.050600465 -0.0070890263 -0.07596495 -0.08195744 -0.0074821576 -0.010059312
0.12392739 0.11534057 -0.017182233 0.01313763 -0.062601686 -0.13913128 -0.04676822 0.050652068
0.14966854 0.07784239 -0.06253116 -0.075153425 -0.041829642 -0.031728186 0.14135191 -0.02233037
0.088891484 -0.042713925 0.0102236075 0.059614938 -0.025931101 -0.012247518 -0.09387346 -0.052921634
0.050346006 -0.024266975 -0.017006505 -0.080175504 -0.0706981 -0.03399056 -0.041659527 0.0031923335
-0.05643638 -0.06510078 -0.09511765 -0.10226765 -0.022510622 -0.078467816 -0.008607937 0.07359659
-0.092865184 -0.15308468 -0.0951177 0.07041015 -0.07502105 -0.01851221 -0.058502175 0.05723254
0.07974983 -0.09412052 -0.123372726 -0.13091923 0.053515803 0.060687188 0.015250894 -0.074733585
-0.037179023 -0.12525344 0.04769638 0.07886651 -0.08399863 -0.06739757 0.014198243 0.02632175
0.05937566 0.020482074 -0.11956041 -0.10712034 -0.09123427 -0.08521406 -0.09536201 -0.1496811
0.03473391 0.012709344 0.098927334 0.0793063 -0.046844374 0.029106304 0.1358511 0.1180576
-0.098475225 -0.027261876 -0.058659162 -0.10278981 0.027774176 -0.08081831 0.09608246 0.09535284
0.038247503 -0.15041257 0.025942067 -0.08604822 -0.07687293 -0.03747965 -0.046051525 -0.037145194
-0.078976326 -0.14535657 0.07694499 -0.04293343 0.07325458 -0.06469579 -0.06051468 -0.058399018
-0.010295591 -0.15277211 0.034016833 0.02301165 0.08273162 -0.022139253 0.0013332341 0.090323895
0.050552994 -0.027496425 0.063759744 -0.06551796 0.0051176236 0.057450924 -0.101635545 -0.027926417
0.08408484 0.04585703 -0.1611904 -0.05448868 -0.039959062 -0.16908094 -0.14430457 -0.044867575
-0.052632473 -0.07287397 0.049421854 -0.10973838 -0.024075467 -0.12306369 -0.09327267 -0.10686403
0.013194272 0.0006755521 -0.038445294 0.03667441 0.032210346 0.054668948 0.07455184 -0.059287097
-0.06795489 -0.014800249 0.030394169 -0.056009673 0.009910309 0.0061334693 0.07191887 -0.11632972
00000000: 60e0 02be 8410 7b3c d0b8 393c d0ff a23c
00000010: 099c b2bd 94de 20bd 17f8 a9bc 42b8 1ebe
00000020: 1c57 d9bd 05ed 383d f1fb 013d d7be a7bc
00000030: d04e 92bd de07 e73d 4e1b bf3d 54e1 013d
00000040: 3434 df3b 0771 4a3d 577a 283e 7282 553d
00000050: ff89 d43d cdbe 233e d741 08be a8cf 783d
00000060: e586 5cbc 4cba 403d 5b27 20bd af6b 6fbd
00000070: 823f 98bc 999f a0bd cbbc 90bd 1055 8cbd
00000080: 725d b4bd e556 7a3a 7125 80bd 7d7d b2bd
00000090: 0949 b33d afa7 cdbd f091 a7bd 9526 5f3c
000000a0: d6f8 b5bd c818 ee3d 096c 03bc 2d9f 483d
000000b0: 9d01 0a3e 6a76 20be 4428 b8bd 7061 023e
000000c0: a960 0d3c bb3c c53d 635a dabc 8241 f23d
000000d0: 3231 1cbc f85b 4c3d 7534 a43c 98c9 13be
000000e0: a25a f3bd 24d2 8bbd 5ddc 79bc fdf2 da3b
000000f0: d083 f83d 40b1 c4bd 7e73 403d 67ba 0d3e
00000100: 4d22 f6bd f236 943d e2e1 a0bd 8a40 fcbd
00000110: 3bde 93bc 598c aebd 9713 263d 8653 00be
00000120: 6424 1fbe 88a0 993d ac61 3e3d 4697 15be
00000130: 8574 ae3d f0c2 d23d 736f 2ebd f5f2 c0bd
00000140: 5613 db3d 482a 14be c8ac f93d e5cd a73d
00000150: a22a 09bd 2599 84bd 9e15 6ebd a39f 013e
00000160: 5f82 673a 4b5a 6abd 4c78 d93d 4750 15be
00000170: 4fff 343e 0572 71bc be73 80bd c71e 13be
00000180: 8e03 f83c 368a eabd 6f42 4f3d 104b e8bb
00000190: 8393 9bbd 4dd9 a7bd e32c f5bb d0cf 24bc
000001a0: a5cd fd3d ad37 ec3d c1c1 8cbc 373f 573c
000001b0: 5035 80bd 6e78 0ebe 0890 3fbd 8b78 4f3d
000001c0: b642 193e d56b 9f3d 5610 80bd 0aea 99bd
000001d0: 8f55 2bbd 6af5 01bd 8ebe 103e 2eee b6bc
000001e0: bd0c b63d ccf4 2ebd eb80 273c cb2e 743d
000001f0: 766d d4bc d0a9 48bc bb40 c0bd 5bc4 58bd
00000200: 9d37 4e3d 89cb c6bc 3a51 8bbc 0e33 a4bd
00000210: 2aca 90bd af39 0bbd 2ea3 2abd 7836 513b
00000220: d529 67bd 8f53 85bd 0bcd c2bd b471 d1bd
00000230: 3268 b8bc bcb3 a0bd 4e08 0dbc cfb9 963d
00000240: 1a30 bebd 3bc2 1cbe 12cd c2bd 3233 903d
00000250: a3a4 99bd eba6 97bc fa9f 6fbd ab6c 6a3d
00000260: e153 a33d 42c2 c0bd d7aa fcbd b10f 06be
00000270: 6333 5b3d 2193 783d e3de 793c ec0d 99bd
00000280: 0849 18bd 7042 00be 485d 433d c484 a13d
00000290: 7907 acbd bd07 8abd bf9f 683c b6a0 d73c
000002a0: e433 733d 06ca a73c 17dc f4bd e961 dbbd
000002b0: 08d9 babd b684 aebd 284d c3bd 0146 19be
000002c0: 2545 0e3d da3a 503c 6a9a ca3d 576b a23d
000002d0: e3df 3fbd 5870 ee3c 8d1c 0b3e 2fc8 f13d
000002e0: 61ad c9bd 4c54 dfbc 9744 70bd 7783 d2bd
000002f0: ab86 e33c 1284 a5bd e1c6 c43d 5a48 c33d
00000300: 6aa9 1c3d c105 1abe 7584 d43c 0d3a b0bd
00000310: 8e6f 9dbd 4384 19bd 86a0 3cbd 8f25 18bd
00000320: 57be a1bd 5ad8 14be 5695 9d3d f7da 2fbd
00000330: 7f06 963d 3a7f 84bd 3ede 77bd cf33 6fbd
00000340: d7ae 28bc 4b70 1cbe 3c55 0b3d ee82 bc3c
00000350: 326f a93d 615d b5bc eabf ae3a bcfb b83d
00000360: a810 4f3d 2f40 e1bc 7894 823d 482e 86bd
00000370: bdb1 a73b a951 6b3d 4c26 d0bd f1c5 e4bc
00000380: ac34 ac3d 95d4 3b3d 190f 25be 862f 5fbd
00000390: 1dac 23bd 8e23 2dbe 94c4 13be 10c7 37bd
000003a0: 2695 57bd f33e 95bd 926e 4a3d 84be e0bd
000003b0: ea39 c5bc d108 fcbd be05 bfbd 87db dabd
000003c0: ca2c 583c 8917 313a d078 1dbd e837 163d
000003d0: ffee 033d 8cec 5f3d a3ae 983d 07d7 72bd
000003e0: ef2b 8bbd be7c 72bc 31fd f83c 666a 65bd
000003f0: d95e 223c 45fb c83b 334a 933d 473e eebd
